MLP-base Method/MLP/best_model_v2.pth (torch, 5636 bytes, 5 tensors)

net.0.weight f4 [32, 4]
00000000: 092e 00be ace0 0b3e e200 d93d ecb1 1c3f
00000010: 8cdc 4a3e f4ed 69be 6d12 4bbe b55a 67be
00000020: 334c 36be 2fe2 473e 3f04 9d3e b261 1abe
00000030: 7e8a abbd 12ef 9ebe c217 0b3e 7c42 123f
00000040: cde3 c7b8 a74f ab3a 685b 8039 83b1 643f
00000050: ab1e 89be f255 a9be 2df9 133e 61bc 3f3f
00000060: bb5a 5eba d222 b4be cec2 14bd b42a 3cbe
00000070: 23bf b43d 8d4a 62be 47d5 773e d9c8 3d3f
00000080: 2f6b 3dbe 5ed8 a8bc 7b6a 6fbe cd8a 65be
00000090: 1bed 5cbe 45ac 1c3e 43e1 31be 3294 103f
000000a0: 7b0e 423e 33d7 a5be 0f7d 14bd 9c8a 5d3f
000000b0: bce1 343e 6fa0 b83e d1c5 82be 8ad5 45be
000000c0: f81f 0c3e 38cd 91bb 06ca 413e 574c bc3e
000000d0: 5fef 35bd 8bfd 0c3e 02e1 25bd 2e66 283f
000000e0: 0732 803e ad70 0bbf 2d14 a03e f6d5 bfbd
000000f0: d361 5cbe 1eda 46bd b629 a2be 5a2c 31bf
00000100: 4f19 963d 0519 bebe b987 683d 4e03 463f
00000110: 1e4a a7be 0f9e 59be e47d d1be 5ee2 a03e
00000120: 7344 f73d 70b9 96be 9718 1f3e b5a2 c93e
00000130: 3150 d63d a062 a03e 36d3 4abd 8baf fa3e
00000140: e08b 5b3b 865f aebd 724e 16bd 317d db3e
00000150: a445 9ebd 83dd a03d b406 b93d 2a32 1c3f
00000160: 63c3 4fbe 32a0 b2be 8ab2 3c3e 4f6b d8be
00000170: 70f7 4dbd f55c 80bf 5777 873d e33d 293e
00000180: da9f 7a3d 3936 a5be 4e8e a73e d416 2b3f
00000190: a58e 0a3e 4668 9e3e e892 04bd ba17 8ebe
000001a0: 1904 cdbe bfa1 203f 06d7 94be 4565 72be
000001b0: e9a7 c4bd 469a 833e 3c22 983d 5074 ccbe
000001c0: 67ab 28be 6233 403f 45d7 f1bd 196e c9bc
000001d0: 8a0f 853d 6d68 d9be 7c1d 873d c86d eabe
000001e0: 0a89 0fb9 71dc 4e3a 00be a938 24df 223f
000001f0: 9ae5 f7bb 52b1 ccbd d4c8 a73d aecf 03bf
-0.12517561 0.13659924 0.105958715 0.6120899 0.19810694 -0.22844678 -0.19831248 -0.22593196
-0.17802505 0.19519876 0.30667302 -0.1507633 -0.08376025 -0.3104177 0.13583282 0.571327
-9.531491e-05 0.0013070003 0.00024482165 0.8933336 -0.2678121 -0.33073384 0.14450522 0.7489682
-0.0008482148 -0.35182816 -0.036318593 -0.18375665 0.08825519 -0.22098751 0.24202453 0.74134594
-0.18497919 -0.020610984 -0.23380463 -0.2241623 -0.21574824 0.1530009 -0.17371087 0.5647613
0.18950836 -0.32390746 -0.036252078 0.86539626 0.17664236 0.360599 -0.25541547 -0.1931974
0.1368407 -0.004449513 0.18924722 0.36776993 -0.044417735 0.13768594 -0.040497787 0.65780914
0.25038168 -0.54468805 0.31265393 -0.09366982 -0.21521692 -0.048547857 -0.31672448 -0.692083
0.07329046 -0.37128463 0.05677006 0.7734879 -0.32673734 -0.21251701 -0.4091636 0.31422704
0.120736025 -0.29438353 0.15536724 0.39381948 0.10464514 0.31325245 -0.049517833 0.48962054
0.003350012 -0.085143134 -0.036695905 0.4286895 -0.07728127 0.0785475 0.09034482 0.61014044
-0.20289378 -0.34887844 0.18427482 -0.4226937 -0.050284803 -1.0028368 0.06614559 0.16527514
0.061187603 -0.3226793 0.32725757 0.6683171 0.13530977 0.3093893 -0.032366663 -0.27752477
-0.4004219 0.62746805 -0.290703 -0.23671444 -0.09602339 0.2570364 0.07428405 -0.3993249
-0.16471635 0.75078404 -0.118086375 -0.024588631 0.064971045 -0.42462483 0.065974206 -0.4578688
-0.00013688594 0.00078911247 8.093938e-05 0.63621736 -0.0075652124 -0.09994759 0.08192602 -0.5148877

net.0.bias f4 [32]
00000000: b0fb d8be 596f a83e d5ad 2abe 32d1 bcbe
00000010: 5f0d 97bf 88fb b0be f153 403f f44f 4abe
00000020: 1492 303f 69ee eebe 266c 6abe f2e7 0fbe
00000030: 3325 6fbe ebb4 81be 8e50 d43d 2553 3c3d
00000040: 0823 c5be e594 75be 2cd5 9bbc 8424 72be
00000050: eb19 39be b64f adbe 6e39 8f3f 7590 8fbe
00000060: 2402 973e 985a 2a3f d089 65be a04c 873f
00000070: 751a d7be bbd7 4f3f 112a 57bf af63 973f
-0.42379522 0.32897452 -0.16667874 -0.36878353 -1.1800956 -0.34566903 0.75128084 -0.19757062
0.689729 -0.46666268 -0.22892818 -0.14053324 -0.23354034 -0.25333342 0.10366927 0.04597773
-0.3850329 -0.2398258 -0.019022547 -0.23646742 -0.18076293 -0.33849877 1.1189401 -0.280399
0.2949382 0.66544485 -0.22415853 1.0570259 -0.42012373 0.81188554 -0.84048563 1.1827296

net.2.weight f4 [16, 32]
00000000: ef38 543e 428b 75be b96a e33d 79c4 0a3f
00000010: c8e0 0d40 e5e5 0b3f c204 363c 4e14 b13e
00000020: 1710 2bbf 66ee 123f c3f5 eb3e 4ab3 063e
00000030: 8350 6e3e f2ae a53e 62bb 5bbe c8ac f0bd
00000040: adde 0b3f 0fda 323e 555f 913e 496a 333e
00000050: 511d 453e 978c 9f3e 0bc7 80bf 6af2 e73d
00000060: 849a d43d 2846 1dbf da10 fd3c 6745 ffbe
00000070: bde2 233f 7701 85bf 563d cebd e53e bebf
00000080: 0502 09bf 8d19 443d a08f 8cbe df7c 85bd
00000090: 7bae 283f 23bc 46be 2588 173f f52a 1dbe
000000a0: 1070 363f d560 87be 0026 aa3d f2aa 57be
000000b0: ba09 31be dfa3 49be e152 0dbd 6385 983d
000000c0: 68ff 8dbe 02c5 4c3d 4a84 853e 7b04 93bd
000000d0: 46c1 36be 6049 93bd ae4b 283f 53c3 efbe
000000e0: 5488 123e d579 dc3e a1c8 b33c ffae 5d3f
000000f0: 5a12 48be b6da 023f 306d b3bf 8794 893f
00000100: f1e5 493e ed08 4cbe 8970 b33d 0ff5 183f
00000110: 4368 0b40 fda3 3e3f 3f16 5bbd ccc9 b43e
00000120: 3bcf 10bf ff8d f93e 1c69 d03e fc1b 6d3d
00000130: 55cf 603e 47e0 8e3e 005e 45be 779c 01be
00000140: e37c 0c3f 0807 0d3e 6c25 2a3e c2e2 d03e
00000150: c0fc 813e f184 bf3e e4af 8bbf 586f b03d
00000160: 0a78 273e a147 0bbf 7404 573d 8fe2 42bf
00000170: 01fd 213f d722 89bf 6c80 60bd 5829 b5bf
00000180: 14c6 c1bc 9af6 06bd f50b 05bd 2be9 24be
00000190: 18af 0a3e 87d7 02be 8f7a fabc bef7 1abd
000001a0: 59b1 a4bd bc83 363d f989 93bc 929e ba3b
000001b0: b584 b1bd 41cc d63c 7187 a5bb ead3 c33d
000001c0: c52c 003d 8afc a2bd 9991 8e3d 0005 f73d
000001d0: e99b 3bbe fb56 0a3e 272e 44be 2359 553c
000001e0: f4e1 4fbd a81d 18be 072d d93d 0494 2bbe
000001f0: c7b5 64be a6e3 5fbb a36e c5bd 2354 e83d
00000200: b57f 143d e6cb 2bbd 753c 0fbe 0b52 ea3d
00000210: c35e 923f f371 aa3e 00c5 f23d 20d1 9b3c
00000220: 4b16 d2bd 6db1 873d b896 9c3d aba1 2cbd
00000230: 4601 313e 5d82 0cbd bc9b 833c dce8 c7bd
00000240: 3e7b 983e 6e53 85bd 49a7 61bd 65e3 1b3d
00000250: e704 823e 6728 633e 4de0 18bf 7da6 623d
00000260: a067 063e 6df3 91be 684e 31bf c83a 06bd
00000270: 3bb1 dcbe 50dd 18bf 5c2a 97be ad91 d9be
00000280: b7cc b53c e8c0 3f3e 3193 90be d6ed 9ebe
00000290: 8cca 5dc0 f660 aebe 06ad e43e 0848 2a3d
000002a0: 741c 203f a7a4 84be e854 df3d 8afc 42bd
000002b0: 9237 f0bd f0ef 9ebd f898 903d 7dbd 83bd
000002c0: a75d 90be 5575 f0bd 873b cebd da08 513d
000002d0: 868c 313e 763d 8dbd e156 5b3f e335 9cbd
000002e0: e1a0 533e fed1 c83e b953 a7be 768b 3c3f
000002f0: 5e67 28bf c7c6 693f 0df5 debf 9fea ad3f
00000300: 4c0a 2a3e 222b 9abe bb14 473e 321e be3e
00000310: e8e5 f23f da72 193f 8ea3 35bd 53d6 903e
00000320: e956 f9be 2feb 023f 4c74 e53e 41cb ba3d
00000330: 2c80 2a3e 318e 183e 79df 30be 81b2 b2bd
00000340: 46c4 153f 017d 703d 0005 a33d 7cbb 953e
00000350: 684b 7c3e d66d 013f 554a 79bf 9e9b d53d
00000360: 032a c83d 8460 0bbf 02c4 783d 0492 07bf
00000370: 7e3d d93e f72a 40bf 58b2 e1bd fae0 afbf
00000380: 1939 8f3e c18f fa3d 078a 413d 5d70 f53e
00000390: 3ebb 07bf 6635 943e 26be 98be 6a27 d23e
000003a0: 8233 a2be 5d08 2d3f 0bdd cf3e e576 263e
000003b0: c5d5 593e f5bb e23e 69d4 523e af13 dfbe
000003c0: 3332 013f e231 6c3e e87e c63d 26b7 ab3e
000003d0: 0bbe 4f3e 41ff 0b3f 47f8 bdbe 8a0d 213f
000003e0: 118b 143e 9e44 bbbe 171f 993c 055f 30bf
000003f0: b110 033f b625 85be c7e8 c13f 6b45 13bf
0.20724843 -0.23978904 0.1110434 0.54206043 2.2168446 0.54647666 0.011109533 0.34585804
-0.66821426 0.5739502 0.4608594 0.13154331 0.232729 0.32360035 -0.214582 -0.117517054
0.5463665 0.17465995 0.28393045 0.17521013 0.19249465 0.3116195 -1.0060743 0.11325534
0.10381034 -0.61435175 0.030891825 -0.49857637 0.6401785 -1.0391072 -0.10070293 -1.4862944
-0.53518707 0.04787593 -0.27453327 -0.06517958 0.65891236 -0.19407706 0.59192115 -0.15348418
0.71264744 -0.26441064 0.08308029 -0.21061304 -0.17288867 -0.19691418 -0.034502868 0.074473165
-0.27733922 0.04999257 0.2607749 -0.07178589 -0.17847165 -0.071917295 0.6574048 -0.46828708
0.14309818 0.430617 0.021946253 0.8659515 -0.1953825 0.51114976 -1.4017696 1.0748452
0.19716622 -0.1992528 0.08761699 0.5974893 2.1782386 0.74468976 -0.053488012 0.3531021
-0.5656621 0.48741147 0.40705192 0.057888016 0.21954091 0.27905485 -0.1927414 -0.12657343
0.5487806 0.13772213 0.16615838 0.40798002 0.25388145 0.37406114 -1.0913053 0.08614987
0.16354385 -0.5440617 0.05249448 -0.7612695 0.6327668 -1.0713757 -0.054809973 -1.4153242
-0.023654021 -0.03295002 -0.032482106 -0.16104572 0.13543355 -0.1277753 -0.030576019 -0.03783392
-0.08041639 0.044559225 -0.018010126 0.0056951726 -0.0866789 0.026220443 -0.0050515463 0.09561904
0.031292696 -0.07958324 0.06961364 0.120615005 -0.18321194 0.13509743 -0.1915823 0.01302174
-0.050752595 -0.14855063 0.106042914 -0.16755682 -0.22334968 -0.0034162789 -0.09640243 0.11344173
0.036254603 -0.0419425 -0.13987906 0.1144143 1.1435169 0.3329006 0.11853981 0.019020617
-0.10258158 0.06625638 0.07645935 -0.042146366 0.17285642 -0.03430401 0.01606547 -0.09761211
0.29781526 -0.065100536 -0.055091176 0.038058657 0.25394365 0.22183381 -0.59717256 0.055334557
0.13125467 -0.28506032 -0.69260263 -0.032770902 -0.43103966 -0.59712696 -0.29524505 -0.42493954
0.022192342 0.18725932 -0.28237298 -0.3104083 -3.4654875 -0.3405835 0.44663256 0.0415726
0.62543416 -0.2590687 0.109048665 -0.04760412 -0.11729349 -0.07760608 0.070604265 -0.064326264
-0.2819645 -0.11741129 -0.10069948 0.051033832 0.17338762 -0.06896488 0.8567944 -0.076274656
0.20666839 0.3922271 -0.32681063 0.736503 -0.65782726 0.91318935 -1.7418534 1.3587226
0.1660549 -0.30111033 0.19441502 0.37132412 1.8976412 0.59940875 -0.04434543 0.28288516
-0.4869912 0.5114011 0.4481529 0.09120799 0.16650456 0.14897992 -0.17272748 -0.08725453
0.58502614 0.058712963 0.07959938 0.29244602 0.2463814 0.5055822 -0.97379047 0.10430072
0.09773638 -0.54444146 0.060733803 -0.5295718 0.42429727 -0.7506556 -0.110203445 -1.3740532
0.2797325 0.1223445 0.047250774 0.4793729 -0.53020084 0.2894699 -0.29832572 0.41045696
-0.31679922 0.67590886 0.4059833 0.16256292 0.21272953 0.44284025 0.2058884 -0.43569705
0.5046722 0.23065904 0.09692174 0.3353817 0.2028734 0.5468636 -0.37103483 0.62911284
0.14506175 -0.36575788 0.018691583 -0.6889499 0.51197344 -0.26005334 1.5149163 -0.575278

net.2.bias f4 [16]
00000000: 01d1 abbe 3e32 203f 371b d4be 8026 413d
00000010: 36ef e5bd 462b 0b3f 1a7f a1be 7052 29be
00000020: 142a b5bd 9586 f7bc 5205 a8bd 9e69 0dbe
00000030: edb2 5d3d dabb c8bd 848a dabd ed89 5a3e
-0.33557895 0.62576663 -0.41427013 0.047155857 -0.112272665 0.54362905 -0.31542283 -0.16535354
-0.088459164 -0.03021554 -0.0820414 -0.13809821 0.054125715 -0.09801455 -0.10670951 0.21341677

net.4.weight f4 [1, 16]
00000000: d4e7 33bf 996f c6bf e2f0 b0bf 3359 9e3d
00000010: 3642 1cbd e9c2 a8bf 9072 cebf 64ef 8b3f
00000020: 5f26 b540 e217 27bf aae8 a140 fc8e cb40
00000030: ce08 15bf 3583 a940 e3eb ac3f b2c2 9840
-0.70275617 -1.5502807 -1.3823512 0.07731857 -0.03814908 -1.3184482 -1.6128712 1.0932431
5.660934 -0.6527082 5.0596514 6.361204 -0.5821656 5.2972665 1.3509487 4.7737665
