MLP-base Method/MLP/best_model.pth (torch, 5478 bytes, 5 tensors)

net.0.weight f4 [32, 3]
00000000: 6dd2 2e3e 1d08 263f 53aa 03bf 55e0 9ebe
00000010: 7858 903f 907d 86bd 61f1 b0bc 762d 333f
00000020: 54c1 6cbc 2143 eb3c 3764 b63e 2216 27be
00000030: 863d 993e 1ecf 02bf d14b a1bc 084c d53d
00000040: 9ebe adbe 63e6 d83c bad1 ad3d d158 fe3e
00000050: c4cf f4bd 6c97 403e 57ed 163d 7c5e d6bd
00000060: 7970 6b3e 17f7 e03e 72a9 5a3e a506 42be
00000070: d5d0 dc3e cbaf dabe c082 fabe b5a3 a33d
00000080: 9045 42bf 1bdd 6ebe 0730 0bbd 30ce bfbe
00000090: 3ab0 1bbe 783f 8dbe 946e 92be 7535 ca3e
000000a0: 45d7 b53e 6049 95be 2023 23bf 5638 71bd
000000b0: 2aad ef3d 5185 973e 6d11 87bb abf2 18bf
000000c0: 4b19 58bd 1dff 4f3f 61bd 0a3d 5d64 e23e
000000d0: 4605 ddbd 4aff b2be c837 67be fc6c 2bbf
000000e0: 7e9a 02bf c713 bbbe 1868 3ebe 45d4 573f
000000f0: 81ab 14bf a50c 653e f2c7 77be 55a6 a53d
00000100: 08d6 8ebf 6c21 8b3e 9b71 ac3d a5dc 803f
00000110: b300 063e 422e bd3d 7b1c 373d 45b8 0a3f
00000120: 7516 9fbd 4007 6e3d 0e5d c93e 8b77 183f
00000130: 7e9b 323e 4cce c33e a180 61be 40b1 db3b
00000140: 283d 773e 58de 363f 6f7b d7ba e338 d7be
00000150: 6e60 8abe 0e77 38bb 34d9 843d 89d7 67bf
00000160: 1c21 12bb d2a8 a23e 0055 703d 88ff ddbe
00000170: 7d4a f53d 9d77 c3be 8280 6bbf 39b2 903d
0.17072459 0.6485613 -0.5143177 -0.31030527 1.1276999 -0.06566918 -0.021599473 0.6999124
-0.01445039 0.028718533 0.35623333 -0.16317037 0.2992975 -0.51097286 -0.019689472 0.104148924
-0.33934492 0.026477044 0.08487268 0.49677137 -0.11953691 0.18807763 0.03684744 -0.1046724
0.22992124 0.43938515 0.21353701 -0.18947847 0.43128076 -0.42712244 -0.4892788 0.07990209
-0.75887394 -0.23326533 -0.03398135 -0.37461996 -0.15203944 -0.27587485 -0.2859999 0.3949391
0.355158 -0.29157543 -0.6372547 -0.058891617 0.1170295 0.295939 -0.0041219504 -0.5974528
-0.052758496 0.81248647 0.033872012 0.44217196 -0.107920215 -0.34960395 -0.22579873 -0.6696317
-0.51016986 -0.36538526 -0.18594396 0.8430827 -0.58074194 0.22368105 -0.24197367 0.08088366
-1.1159067 0.27173936 0.08420106 1.0067335 0.13086204 0.092373386 0.044704895 0.54187423
-0.07767955 0.058112383 0.39328808 0.5955741 0.17442128 0.3824333 -0.22021724 0.0067044795
0.24144423 0.7143302 -0.0016439984 -0.4203559 -0.27026695 -0.0028147134 0.06486741 -0.90563256
-0.0022297567 0.31769425 0.058674812 -0.43359017 0.11977098 -0.38177195 -0.9199296 0.07065243

net.0.bias f4 [32]
00000000: 34df 11bf 8eec 3dbd 7eee c43e b39d 0b3f
00000010: e3c9 98be e223 903e fd7d 1cbb df22 1a3f
00000020: dff6 d63e dac4 a5bb 7682 f8be 9594 13bf
00000030: b042 0f3e 6432 953c 9b00 0c3f 678b 9d3a
00000040: 4bab 1039 84e2 3a3e 66af 6e3e 7f04 41be
00000050: 9405 28be 6cd2 ae3a 9e3e d63a e47d 883e
00000060: 4474 f13e 90d2 643b 864e 46ba 0c17 d03a
00000070: 5e44 873d 0a5f 89bb 0c28 813e 1e35 8e3b
-0.56981206 -0.046368174 0.38463205 0.54537505 -0.29841527 0.28152376 -0.0023878806 0.6020946
0.41985223 -0.005058867 -0.48537034 -0.57648593 0.13990283 0.018212505 0.54688424 0.0012019695
0.00013796722 0.18250471 0.23309097 -0.18849371 -0.16408378 0.0013337857 0.0016345566 0.26658547
0.47159016 0.0034915544 -0.00075648015 0.0015876009 0.06604837 -0.0041922377 0.25225866 0.004339828

net.2.weight f4 [16, 32]
00000000: ffd7 1e3e ab41 2b3e 5aad 94bd 0a64 ec3d
00000010: 7e41 52bd cb9d d7bd 5d88 7b3e 29a9 8ebd
00000020: 5554 9b3d c5ce 85be 501b 89be 26a5 85be
00000030: 79cb 073e 406f bdbd b217 d53c 0bb7 e33e
00000040: 59d2 773e c341 293d e6a5 613d e942 a03d
00000050: 83ba dc3d 7ba3 113e 8408 8fbd d7c1 8fbd
00000060: 7166 8d3e 770b 123e 6fdd 28be d849 b83e
00000070: 772e bdbc baef c03e bbb4 b83b 3c4a ab3d
00000080: 6c26 abbe 64e3 40bf 6733 843e 79a1 a23d
00000090: 9feb 1cbe 8086 643e 4079 26be 4b44 b33e
000000a0: a56e ba3c 197a be3e c5d5 e03d 4eb1 c0be
000000b0: 24a8 cebd 0b9f 373e 91d7 403e 3adf cebe
000000c0: 909f 3bbf b597 293e 0240 113c 2676 aebd
000000d0: de69 10be 66e6 28bf b0be 45be a433 7f3e
000000e0: d80d 433e c2f7 debc a491 09bd b656 62be
000000f0: f84c 9a3d 951c 8abd 2ee4 213e d697 6fbe
00000100: afd1 22bd 95a5 94be b698 8b3d 92aa 32bc
00000110: 0805 343d 08ed a73e 8956 78bc be04 0a3d
00000120: c175 7e3e c2a7 683e fd56 85bd 96ff b73d
00000130: bc76 67bd 5705 043e ef24 483d 0fdb 07be
00000140: 662e 6abe 3785 003d c374 ad3e a2f0 393d
00000150: 36d6 35be 54bc b9bc ac9b c33c a212 eb3c
00000160: deac 333e a740 a33d 3c1c 38be 58bc 363b
00000170: 96e3 503e 166a 2ebe d78b 753e 4e47 88bb
00000180: d193 8dbe fcdb 02bd 5d04 783c 0477 1dbe
00000190: 619f 35be 995e 2f3e 1b88 ed3c 1f25 013e
000001a0: e0ff 69bc 1677 e83e 4b64 0fbd 8dfe 99be
000001b0: c58f 513d 33af 193d 2d74 343e 885b 12bf
000001c0: e151 53be 505c 85bb de79 fbbd b835 2fbe
000001d0: fb7b dcbc 140f 07bf 923c 20be 1e09 0d3e
000001e0: 4a55 b63d 909d fc3c 808c 29be 91cd 88be
000001f0: 2f17 8bbc 74c7 05be 7f8d 8d3d 3a2f d8be
00000200: 3014 5abe 10cb d13e e04e c0bd b074 07bd
00000210: e6d6 3b3d 3f40 47be 6cd5 94be 4076 043e
00000220: 4174 90bd a193 f2be 917f f9be fbd2 83bf
00000230: 10b5 5f3e 29ff fdbe 2872 2e3e 7eac b33e
00000240: 1607 003e 6755 bbbe 7493 303e 136e eb3d
00000250: f40d dcbd 22a7 373e bb0f 253d a8fb 2abe
00000260: e5ee 283e 91f6 013e 2f61 0cbd 7a0b 7c3e
00000270: ada3 3c3e 5266 523e 0d1d c83d bc9d 57be
00000280: 7f7c 463e d0b6 44bc 44d1 6d3e 9642 223e
00000290: 86c9 1d3d 02b0 d53d adbb 1d3e 8309 62bc
000002a0: 72ac b03d e162 cd3e 9f4c a03e 7993 af3e
000002b0: 6acf 403e 2588 c93c edac 023e a69f 29be
000002c0: 7126 323c 7322 d13c 3a06 633e 5bb0 f63b
000002d0: d7aa 243d c7bb e9bd 6e1e 2bbd 8cd9 f23b
000002e0: f05a 023d 7609 b93d 8fa0 243e 38dc 57be
000002f0: 7cf6 aa3d 3a7c 24be 24ee a03e c3fe 3e3e
00000300: 4b02 983b 3780 ccbd 90e6 e3bd df78 123d
00000310: 7209 4cbb 0129 28bd 0669 b9bc bf56 963e
00000320: 926b 673d 4c29 7d3d 4c91 f1bd 842c cebe
00000330: 9eae 66bd 7e2d 8e3e 08b1 9cbd 0bb7 693e
00000340: 03aa ce3e 361d 253e b2dc c53d 72e2 9d3e
00000350: 36cd 3b3e d7c1 503e d23e 89be 9871 20be
00000360: 6aa7 2bbe c608 213e e000 50be 5bde 933e
00000370: fc34 5fbe 3958 b63c 66a0 1f3d b1a3 b4be
00000380: 7cec ddbe 783c 07bf 037a ff3e a43f c63d
00000390: d904 133c 1813 4f3e 099e 3f3d e8f1 e53e
000003a0: 9672 423e ddb9 c13e 0a56 babc 576e aebd
000003b0: 8920 543d 2f13 e93d 8e0b e63e c9ce f1be
000003c0: 0a3f 4dbf aa7b 383e a7ca c7bd 9cac 58be
000003d0: 0626 9a3b 97e7 13bf b7ec cfbe 5f30 0b3e
000003e0: 953b 173e 8691 cdbe 7d78 92be 1203 9bbe
000003f0: 0029 853d bcab adbe 36a5 a93e f206 59be
0.15512083 0.16724269 -0.07259627 0.115425184 -0.05133199 -0.105281435 0.24563737 -0.069658585
0.075844444 -0.26134315 -0.2677865 -0.2610256 0.13261212 -0.09249735 0.026012275 0.44475588
0.24201335 0.04132248 0.055089854 0.07825262 0.10777762 0.14222519 -0.06984046 -0.07019394
0.2761722 0.14262186 -0.1649072 0.35993838 -0.023093445 0.37682897 0.005636779 0.083637685
-0.3342775 -0.7534697 0.25820467 0.07940955 -0.15324257 0.22316933 -0.1625719 0.3501304
0.022757838 0.37202528 0.10978273 -0.37635273 -0.10090664 0.17931764 0.18832232 -0.40404683
-0.7329035 0.16561778 0.008865358 -0.08518629 -0.14102885 -0.6597656 -0.19311023 0.24922043
0.1904825 -0.02721775 -0.03358616 -0.2210339 0.07534212 -0.06743733 0.158097 -0.23397765
-0.03975075 -0.2903258 0.06816237 -0.010904925 0.04395011 0.32798028 -0.01515735 0.03369593
0.24849607 0.22720245 -0.06510732 0.08984296 -0.05650972 0.12892662 0.048863348 -0.13267158
-0.22869262 0.031377044 0.33878145 0.0453955 -0.17757496 -0.02267281 0.023877941 0.028695408
0.17546412 0.07971316 -0.1797952 0.0027883258 0.20399317 -0.17032656 0.23979126 -0.004158891
-0.27651837 -0.031948075 0.015137759 -0.15377432 -0.1773658 0.1712593 0.028995564 0.12611817
-0.014282197 0.45403355 -0.035007756 -0.3007702 0.0511625 0.0375206 0.17622443 -0.57170916
-0.20636703 -0.0040698424 -0.12279104 -0.17110336 -0.026914587 -0.5275738 -0.15648106 0.13773009
0.08902986 0.03083685 -0.16557503 -0.26719335 -0.016978828 -0.13064367 0.06911754 -0.4222353
-0.21296763 0.40975237 -0.09390044 -0.033070266 0.04585924 -0.19458102 -0.29069078 0.12935734
-0.07053424 -0.47378257 -0.48730138 -1.0298761 0.21846414 -0.49608734 0.17035735 0.3509254
0.12502703 -0.36588594 0.17243749 0.11495604 -0.10744849 0.1793485 0.040298205 -0.16697562
0.16497381 0.12691714 -0.03427237 0.24613753 0.18421812 0.20546845 0.09771166 -0.21056265
0.19383429 -0.0120064765 0.2322436 0.15845713 0.038522266 0.104339615 0.15403624 -0.013796213
0.08626641 0.401145 0.31308457 0.342922 0.18829122 0.024601052 0.12761278 -0.16564807
0.010873423 0.025529122 0.22170344 0.0075283474 0.040201988 -0.11412769 -0.041777067 0.0074111875
0.031825006 0.09035008 0.16076873 -0.210801 0.083477944 -0.16063014 0.31431687 0.18651871
0.004638945 -0.099853925 -0.11127961 0.035759803 -0.003113356 -0.04105473 -0.022633087 0.29363057
0.05649907 0.061806962 -0.11795291 -0.40268338 -0.05631887 0.27769083 -0.076509535 0.22823732
0.40364084 0.16124424 0.09661235 0.30836827 0.1834 0.20386444 -0.2680574 -0.15668333
-0.16763082 0.15726003 -0.20312834 0.2888058 -0.21797556 0.022258865 0.038971327 -0.35281137
-0.43344486 -0.52826643 0.49897775 0.09680107 0.008973324 0.20222127 0.046781573 0.44911122
0.18989024 0.37837115 -0.022746105 -0.085171394 0.05178884 0.11380612 0.4493069 -0.47228077
-0.80174315 0.18015924 -0.0975545 -0.21159595 0.00470424 -0.57775253 -0.40610287 0.13592671
0.14768822 -0.40150088 -0.2860755 -0.3027578 0.06501961 -0.33920085 0.33133858 -0.21194056

net.2.bias f4 [16]
00000000: f75f 15be 753f dc3e fb15 b83c 5bad e03a
00000010: 492c adbd 68de 1e3e 906f 71bd 05c0 b73e
00000020: b629 f2bd 29eb a03e e422 073e e3f5 d03d
00000030: 2df4 3cbd d10c eb3d 3d1a 853c 72e2 41bc
-0.14587389 0.43017164 0.022471419 0.0017141508 -0.08455712 0.15514529 -0.058944285 0.35888687
-0.11824362 0.31429413 0.13196903 0.10203149 -0.0461313 0.11477054 0.016247863 -0.011833774

net.4.weight f4 [1, 16]
00000000: e29c 043e 1b34 d5be 1862 9cbd 8011 9abd
00000010: 769b b03e e2aa 17be 9171 d43d c6ee 32bf
00000020: 15fd c73e 7641 09bf 9be8 3abf bb10 6cbe
00000030: a195 dabe c747 40be e957 a03e 58b5 1c3d
0.12950471 -0.41641316 -0.076358974 -0.07522869 0.34493607 -0.1481128 0.103732236 -0.6989559
0.39060274 -0.5361551 -0.7301118 -0.23053257 -0.42692283 -0.18777381 0.3131707 0.03825888
