MLP/best_model_adapted.pth (torch, 37682 bytes, 19 tensors)

net.0.weight f4 [64, 4]
0	0x3ede9b7f	0.4347801
1	0x3e942e6e	0.28941673
2	0xbee91225	-0.45521656
3	0x3e9f7c2a	0.31149417
4	0x3eb33586	0.35001773
5	0xbec7491d	-0.38922969
6	0xbe7b5976	-0.24545845
7	0xbece72b4	-0.40321887
8	0x3ee8a95a	0.45441705
9	0xbdd2beff	-0.10290336
10	0xbeefcb0e	-0.46834606
11	0x3e6e0a18	0.23246038
12	0x3d99e618	0.0751459
13	0x3e329280	0.17438698
14	0x3e558a78	0.20853603
15	0x3f3e2dc9	0.7428861
16	0xbdf56832	-0.11982764
17	0xbe8bb7bc	-0.27288616
18	0xbe651e35	-0.22374804
19	0xbcd12eb7	-0.02553497
20	0xbdb8d3d1	-0.09024776
21	0x3e4a9012	0.19781521
22	0x3e922207	0.28541586
23	0x3d065faa	0.032806076
24	0xbe2ed176	-0.1707209
25	0xb930fbb2	-0.00016878432
26	0xbecf1963	-0.40449056
27	0x3e465d64	0.19371563
28	0xbe9ce36a	-0.30642253
29	0xbde2005d	-0.110352255
30	0x3ed0b51c	0.40763175
31	0x3e8dbc6e	0.27682823
32	0xbe848250	-0.2588067
33	0x3d38c536	0.04510995
34	0x3e034a6d	0.1282136
35	0x3e6eb461	0.23310997
36	0x3edec60b	0.4351047
37	0x3e09f306	0.13471612
38	0x3d8bb4b0	0.06821573
39	0x3f07d12c	0.53053546
40	0xbe40b11d	-0.18817563
41	0xbe21854c	-0.15773505
42	0xbe970add	-0.29500476
43	0x3d0ff005	0.03514101
44	0x3e430761	0.19045784
45	0xbe142e36	-0.14470753
46	0x3ebcfbb2	0.36910778
47	0x3e7252c4	0.23664385
48	0x3ede2c34	0.433931
49	0x3d65b669	0.056082163
50	0xbe7210b3	-0.23639183
51	0x3e6ce4ef	0.23134206
52	0x3e5b563c	0.21419615
53	0xbe7082e2	-0.23487428
54	0xbc6a2b97	-0.014292619
55	0x3d7011cb	0.05861072
56	0xbe080648	-0.13283646
57	0x3dfbc39b	0.12293168
58	0xbe890bd5	-0.2676684
59	0x3ca283ae	0.01983818
60	0x3cbba8bd	0.02290761
61	0x3d4bb41b	0.04973231
62	0xbd9d1185	-0.07669357
63	0xbe9bb041	-0.3040791
64	0x3d189474	0.03725095
65	0xbf0598f2	-0.521865
66	0xbbbea741	-0.005818278
67	0xbead541c	-0.33853233
68	0xbedfe606	-0.4373018
69	0x3ecd9903	0.401558
70	0x3e810ef4	0.2520672
71	0xbed3e273	-0.41383705
72	0xbea59d31	-0.3234649
73	0x3cfd3b6f	0.03091213
74	0xbebeac01	-0.37240604
75	0x3dfb51ae	0.122714385
76	0x3ed015b9	0.40641573
77	0x3ecef7c7	0.40423414
78	0xbe0d8829	-0.13821472
79	0xbe048363	-0.12940745
80	0xbd2c96f7	-0.04213616
81	0x3ecc45df	0.39897057
82	0x3ed6669c	0.4187516
83	0xbecfaf9e	-0.40563673
84	0xbeebb116	-0.46033543
85	0xbdd98763	-0.10621526
86	0x3ec313ce	0.38101047
87	0x3ebb5245	0.36586204
88	0xbc56472d	-0.013078493
89	0x3d24d57c	0.040242657
90	0xbe88a9f0	-0.26692152
91	0x3f78815e	0.970724
92	0xbdc15421	-0.094398744
93	0xbec43fed	-0.38330022
94	0xbed51a1d	-0.41621485
95	0xbe5365c6	-0.20644292
96	0xbeb7df66	-0.35912627
97	0xbe9e4496	-0.30911702
98	0xbec11739	-0.3771303
99	0x3f73cfb0	0.9523878
100	0xbdebe95c	-0.11519119
101	0xbdba933c	-0.09110114
102	0xbeb1cf94	-0.34728682
103	0xbe970a74	-0.29500163
104	0xbe987096	-0.29773396
105	0xbc95865a	-0.01825254
106	0xbbb261ad	-0.0054437728
107	0x3f1166a3	0.56797236
108	0xbe919b7e	-0.28438944
109	0x3e058b86	0.13041505
110	0x3e439483	0.19099621
111	0x3e4d7771	0.20065095
112	0x3ed9715d	0.42469302
113	0x3e97ccdd	0.29648486
114	0xbebb65e5	-0.36601177
115	0x3d2a4d61	0.0415777
116	0xbedaa127	-0.42701074
117	0xbebd9655	-0.37028757
118	0x3be29b77	0.0069155055
119	0x3dab0e9f	0.08352398
120	0x3e038a2a	0.12845674
121	0x3e130fc6	0.14361486
122	0x3ec58d70	0.3858447
123	0xbe6b6d3c	-0.22990888
124	0x3ed6a5ae	0.4192328
125	0xbe9b5a0c	-0.30342138
126	0x3dac7f30	0.084226966
127	0xbe6954d4	-0.22786266
128	0xbe9413ad	-0.2892126
129	0xbebdd0f6	-0.37073487
130	0xbedf7e70	-0.43651152
131	0x3dbba4a3	0.09162261
132	0xbed7c931	-0.42145684
133	0xbe69cf70	-0.22833037
134	0x3eb8cf7a	0.36095792
135	0xbbce82d2	-0.006302216
136	0x3ef1d2b7	0.47231075
137	0x3d22a1bf	0.039705034
138	0xbe6e5481	-0.23274423
139	0x3baea2ca	0.0053294646
140	0x3e5b21cf	0.21399616
141	0xbd1657a5	-0.036704678
142	0xbe00536b	-0.12531821
143	0xbd5624a7	-0.05228105
144	0x3e4cf4c4	0.20015246
145	0x3c58ef25	0.01324061
146	0x3e2970a0	0.1654687
147	0xbde39769	-0.111128636
148	0xbedc7fe4	-0.43066323
149	0xbe881f38	-0.26586318
150	0xbea0a4f1	-0.3137584
151	0x3f04954e	0.5179032
152	0x3dddecfc	0.10836217
153	0x3eb5b85c	0.35492218
154	0xbda48181	-0.080325134
155	0xbebe5c84	-0.3717996
156	0x3e559d17	0.20860706
157	0xbeb73465	-0.3578216
158	0x3eefa695	0.4680678
159	0x3f79fd2b	0.9765193
160	0xbe6e3b87	-0.23264895
161	0x3e655e4c	0.22399253
162	0xbe4aa4c1	-0.19789411
163	0x3f5268f1	0.8219138
164	0xbe2f5881	-0.17123605
165	0xbd39e2ff	-0.045382496
166	0xbca48a6f	-0.020085542
167	0xbd10af9d	-0.035323728
168	0xbe480d6e	-0.19536373
169	0xbeb754ce	-0.35806888
170	0x3e8db997	0.27680656
171	0xbe79a1e2	-0.2437816
172	0xbec91d13	-0.39279994
173	0xbd45e05c	-0.04830967
174	0xbe0021bb	-0.12512867
175	0x3f7272da	0.947065
176	0x3ee74f95	0.45177904
177	0x3eab8afc	0.33504474
178	0xbea53529	-0.3226712
179	0x3ee5da29	0.44893005
180	0xbeb3fff9	-0.3515623
181	0xbeca33b6	-0.39492577
182	0xbecad7cb	-0.39617762
183	0x3e83e468	0.25760198
184	0xbee80e09	-0.45323208
185	0x3e975f0c	0.29564703
186	0x3dec6d1b	0.11544248
187	0x3eb80756	0.35943097
188	0x3e282fbe	0.16424462
189	0x3abe428b	0.0014515681
190	0x3d9c718f	0.07638847
191	0x3dfebfb2	0.12438907
192	0x3e9ca3d6	0.30593747
193	0xbe3fa43a	-0.18714991
194	0xbe51e65a	-0.20498028
195	0xbdfebda8	-0.12438518
196	0xbe9b917c	-0.30384433
197	0x3ea78d2c	0.32724893
198	0x3db3ffe9	0.08789045
199	0x3dd6f319	0.10495586
200	0xbea0b15f	-0.31385323
201	0x3e97c2bb	0.29640755
202	0x3d29b355	0.04143079
203	0xbe812cb5	-0.2522942
204	0x3ed5a4c8	0.4172728
205	0x3ea09662	0.31364733
206	0xbe9fe4e5	-0.3122932
207	0xbd8f5e06	-0.070003554
208	0xbedc2c88	-0.43002725
209	0xbe7783a9	-0.24171318
210	0xbdb9cabd	-0.090718724
211	0x3e25aa1b	0.16178171
212	0xbed056eb	-0.40691313
213	0x3eaef344	0.34169972
214	0xbe7d2add	-0.24723382
215	0xbe3fbb12	-0.18723705
216	0xbe40fa3a	-0.18845454
217	0x3ecbe837	0.39825603
218	0x3e826d3f	0.25473973
219	0x3e1fc725	0.15603311
220	0xbe9e96d5	-0.3097445
221	0x3d554eb9	0.05207703
222	0xbd9aac4c	-0.07552394
223	0xbf081a4a	-0.53165114
224	0xbd6e9536	-0.058247767
225	0x3ea07fe6	0.3134758
226	0xbe88cd82	-0.2671929
227	0x3f7070b0	0.9392195
228	0xbe81fc1e	-0.25387663
229	0x3ecd3830	0.4008193
230	0xbddfe347	-0.109320216
231	0xbe4e5ed7	-0.20153366
232	0x3ec904ae	0.39261383
233	0x3e41aaba	0.18912783
234	0x3ec1eda7	0.37876627
235	0x3f87bac3	1.060387
236	0x3e186ae6	0.14884529
237	0x3e16dd7c	0.14732927
238	0xbe72881a	-0.23684731
239	0xbe8bc1a5	-0.27296177
240	0x3eaa304c	0.33239973
241	0x3ee0c330	0.43898916
242	0xbebfb638	-0.3744371
243	0xbeca7312	-0.39540917
244	0x3e502efd	0.20330425
245	0x3f010368	0.5039582
246	0xbdfdde6e	-0.12395941
247	0xbead79f7	-0.33882114
248	0x3e8c8a8d	0.27449456
249	0xbf0051fa	-0.50125086
250	0xbdfb8ebd	-0.122830845
251	0xbea2b331	-0.31777337
252	0xbe9b756a	-0.30363017
253	0x3e9c85fc	0.30570972
254	0xbd00da7e	-0.03145837
255	0xbed245e1	-0.41068938

net.0.bias f4 [64]
0	0xbe94d6e7	-0.29070207
1	0xbeaf4ccf	-0.34238288
2	0x3e7c3b30	0.24631953
3	0x3ea0b467	0.31387636
4	0xbeb36cc4	-0.3504392
5	0xbe70e650	-0.23525357
6	0xbe9d50ca	-0.307257
7	0xbedc372a	-0.43010837
8	0xbd1f1956	-0.03884252
9	0x3e288be0	0.16459608
10	0x3e9455ea	0.28971797
11	0x3eb1222c	0.34596384
12	0xbd84ceeb	-0.06484779
13	0xbd8445c1	-0.06458617
14	0xbef924eb	-0.4866098
15	0x3e8fdb0d	0.2809681
16	0xbe04ecf4	-0.12981015
17	0x3e8fdb2c	0.28096902
18	0xbd884307	-0.066534095
19	0x3ee04a8a	0.4380687
20	0xbe894741	-0.26812175
21	0xbe396556	-0.18105063
22	0x3f052732	0.5201293
23	0x3dcd3c14	0.100212246
24	0x3f2a182b	0.6644313
25	0x3ebdd958	0.37079883
26	0x3edc799f	0.4306154
27	0xbed1fb4a	-0.4101203
28	0xbd1dd7e8	-0.038535982
29	0xbea0e6f3	-0.314262
30	0x3eb31421	0.34976295
31	0xbee763ca	-0.4519332
32	0xbe941dfe	-0.28929132
33	0x3ea1ca0d	0.31599465
34	0xbf0142e3	-0.50492686
35	0xbe9a5c38	-0.30148482
36	0x3e12816d	0.14307185
37	0x3e3b7412	0.18305996
38	0x3f013b01	0.5048066
39	0x3eaa8357	0.3330333
40	0x3db030a1	0.08603025
41	0xbe917fac	-0.28417718
42	0x3efe20a3	0.49634275
43	0x3f4294cb	0.7600829
44	0xbdf7b680	-0.12095356
45	0x3e01ee6b	0.12688605
46	0xbe9717fd	-0.2951049
47	0xbe01433e	-0.12623307
48	0x3ee5aeef	0.44860026
49	0xbba21e18	-0.004947435
50	0x3ea0cfee	0.31408638
51	0x3e977b07	0.2958605
52	0x3db2abc1	0.08724166
53	0x3dee407e	0.11633395
54	0xbebb18c2	-0.36542326
55	0x3ebb9729	0.36638764
56	0x3f0d287b	0.55139893
57	0x3d91db1a	0.071218684
58	0x3f1f1868	0.62146616
59	0xbe970242	-0.2949391
60	0x3e2f298e	0.17105696
61	0xbb80a5d1	-0.003926017
62	0xbe8968c8	-0.26837754
63	0xbedfea89	-0.43733624

net.2.weight f4 [64, 64]
0	0x3d3ab8bf	0.045586344
1	0xbda07bda	-0.07836123
2	0xbdc728a2	-0.09724547
3	0x3d56dc03	0.052455913
4	0xbd5eb782	-0.054374225
5	0xbd4914da	-0.04909215
6	0x3db89669	0.090130635
7	0x3d190864	0.037361518
8	0xbdc4fe2d	-0.09618793
9	0x3df0eada	0.117635444
10	0xbdfd5db9	-0.12371392
11	0xbd59b577	-0.053151574
12	0x3d992cc9	0.07479245
13	0xbde45a0c	-0.111499876
14	0x3df9a1e9	0.12189085
15	0x3df7cb5e	0.12099336
16	0xbcd59e6c	-0.026076518
17	0x3e218e29	0.15776886
18	0x3d54fb23	0.051997315
19	0xbda81063	-0.082062505
20	0xbd9a68d2	-0.07539524
21	0xbd48673f	-0.04892659
22	0xbe121681	-0.14266397
23	0x3c28c835	0.010301639
24	0x3d729941	0.059228186
25	0xbbbe4a4b	-0.0058071963
26	0xbe3505f7	-0.17678057
27	0x3d4ef358	0.05052504
28	0x3bb4d052	0.005517998
29	0xbd178b7d	-0.03699826
30	0x3d5e25e8	0.05423537
31	0x3d845338	0.06461185
32	0x3d842530	0.064524055
33	0x3dae4d4c	0.08510837
34	0xbadbf647	-0.001678177
35	0x3e1f9ea8	0.15587866
36	0x3d095cc6	0.03353574
37	0x3d569ae1	0.052393798
38	0xbd9ebe5f	-0.07751154
39	0xbd1aeff7	-0.037826505
40	0x3cba61be	0.022751685
41	0x3adee65f	0.0017005912
42	0x3c6263b8	0.01381772
43	0xbcf127b9	-0.029437887
44	0x3c717cf8	0.0147392675
45	0xbd72c522	-0.05927003
46	0x3dda3437	0.106544904
47	0x3dc2015e	0.09472917
48	0xbe28989a	-0.16464463
49	0xbd4ed18f	-0.05049282
50	0x3dff2356	0.12457912
51	0xbd6de87d	-0.058083046
52	0x3d6d9132	0.057999797
53	0xbc63098e	-0.0138572585
54	0x3c638b11	0.0138881365
55	0x3e116885	0.14200027
56	0x3bf131bf	0.0073606665
57	0xbd885436	-0.06656687
58	0xbdda27f4	-0.10652152
59	0xbc2c0779	-0.0104998285
60	0xbb67063a	-0.0035251514
61	0xbd907f0e	-0.07055484
62	0x3dcb8691	0.09937776
63	0xbdeff84f	-0.11717283
64	0xbe1bfbfa	-0.1523284
65	0x3dd6c925	0.10487584
66	0xbd12fd06	-0.035885833
67	0x3d0d59e4	0.034509555
68	0xbc16c54d	-0.009202314
69	0x3dcf9bcf	0.1013714
70	0xbc924b2b	-0.017858109
71	0xbd2a8119	-0.041627023
72	0x3cb57de5	0.022154758
73	0xbdc1290e	-0.09431659
74	0x3d9028e2	0.07039048
75	0x3dd2c644	0.102917224
76	0xbdc1edc3	-0.094691776
77	0x3e21787b	0.15768616
78	0xbe9cef2f	-0.30651233
79	0xbdd6012c	-0.10449442
80	0xbd20ca2e	-0.039255314
81	0xbddfe94c	-0.1093317
82	0x3d22dd94	0.039762095
83	0x3d832e83	0.06405356
84	0x3d920428	0.07129699
85	0x3d0a9f89	0.03384355
86	0x3e14cbfd	0.1453094
87	0x3de644ae	0.11243568
88	0xbd220365	-0.03955402
89	0x3cd49891	0.025951656
90	0x3d645d84	0.055753246
91	0x3d6d4834	0.057930186
92	0xbc00b0ce	-0.0078546535
93	0xbcb5c4be	-0.02218854
94	0x3d4b049a	0.049564935
95	0x3e075b49	0.13218416
96	0xbd29a878	-0.04142043
97	0x3d377bc6	0.044795774
98	0xbd79ffa8	-0.06103483
99	0xbd29deb4	-0.041472152
100	0xbda65bdf	-0.08122992
101	0xbd4062d5	-0.046969254
102	0x3dded180	0.10879803
103	0x3d05c5aa	0.03265921
104	0xbdd463d0	-0.103706
105	0xbdd276fc	-0.10276601
106	0x3c1791da	0.009251082
107	0x3dd2b9a3	0.10289314
108	0xbde4364d	-0.111431696
109	0x3d65210b	0.055939715
110	0xbd697e00	-0.05700493
111	0xbd4cd36a	-0.050006308
112	0x3e0c303d	0.13690276
113	0x3d3b57ca	0.04573802
114	0xbd8879e1	-0.066638716
115	0xba9f3aaa	-0.001214822
116	0xbd51b688	-0.051199466
117	0xbd198e08	-0.037488967
118	0x3d059ff4	0.032623246
119	0x3d11dad0	0.035609066
120	0x3d3a1190	0.045426905
121	0x3d25d06c	0.04048197
122	0x3be2ffe3	0.0069274767
123	0x3c433f38	0.011916928
124	0xbde2337f	-0.11044978
125	0x3dbaa530	0.09113538
126	0x3ccf7ed7	0.025329037
127	0xbd26ef1c	-0.040755376
128	0xbcde18a0	-0.027111351
129	0xbdbdf87f	-0.092759125
130	0xbdfa1d90	-0.1221267
131	0xbe27b2de	-0.16376826
132	0x3d014689	0.03156141
133	0x3db3f5a0	0.087870836
134	0x3c916e7a	0.017752875
135	0xbdba41cf	-0.09094583
136	0x3cdb1f31	0.026748272
137	0xbd805544	-0.06266263
138	0x3d8aa008	0.06768805
139	0xbd770275	-0.060305078
140	0x3dce798e	0.100817785
141	0x3c7a6ca5	0.015284692
142	0x3cbbf9d1	0.02294627
143	0xbd5321f5	-0.051546056
144	0xbc807b6d	-0.015683854
145	0x3b3f6f06	0.0029210462
146	0x3dcaff29	0.09911949
147	0x3d755990	0.059899867
148	0x3d348d72	0.044080205
149	0x3d5885c9	0.052861962
150	0xbe476c6f	-0.19474958
151	0x3dd42b24	0.10359791
152	0xbdfca8f0	-0.1233691
153	0x3d9dc088	0.07702738
154	0xbc96e9c0	-0.018422008
155	0xbc41d92c	-0.011831563
156	0x3d97d8a9	0.074143715
157	0xbd80fc19	-0.06298084
158	0xbda99f37	-0.08282321
159	0x3d35b6b3	0.04436369
160	0xbdb138b5	-0.08653394
161	0xbdf8b856	-0.12144534
162	0x3d4a0c91	0.04932839
163	0x3cbcb2dc	0.023034506
164	0xbd9d6348	-0.07684952
165	0x3d1bc239	0.038027022
166	0x3d9dd092	0.07705797
167	0x3b63d755	0.00347658
168	0xbd672a31	-0.05643672
169	0x3e5e7fcf	0.21728443
170	0x3d647a60	0.05578077
171	0xbd6090bd	-0.054825533
172	0x3acf84da	0.001583244
173	0xbdc35376	-0.09537403
174	0x3c22ad67	0.009929038
175	0x3d64b309	0.055834804
176	0xbdaa2cdb	-0.08309337
177	0xbd0be7ac	-0.034156486
178	0x3ce14dbe	0.02750289
179	0x3aa5d9cf	0.0012653413
180	0xbc36abbb	-0.011149342
181	0xbcfa8f52	-0.030585919
182	0x3c0911a4	0.008366022
183	0x3c917108	0.017754093
184	0xbe0edcef	-0.13951467
185	0x3aadc2c9	0.0013256903
186	0xbe1bd24d	-0.15216942
187	0x3cac54ca	0.021036524
188	0xba5059a6	-0.0007947929
189	0xbc071fe1	-0.008247347
190	0x3cd75ad3	0.026288426
191	0x3dbdeaeb	0.09273323
192	0xbdccf11d	-0.10006926
193	0x3d046e77	0.03233191
194	0x3dc2c37c	0.09509942
195	0x3d66c702	0.056342132
196	0xbd959a86	-0.07304864
197	0x3ce6d545	0.028177867
198	0x3d97bf15	0.07409493
199	0xbcc8374e	-0.024440434
200	0x3dd0db33	0.10198059
201	0x3dcb2352	0.09918846
202	0xbd89569c	-0.067059726
203	0x3da34554	0.07972208
204	0x3d948071	0.07251061
205	0xbd90edba	-0.07076593
206	0xbcc3bbf4	-0.023893334
207	0xbd84b644	-0.06480077
208	0x3c3f2ca9	0.011668363
209	0x3de30350	0.11084616
210	0xbd9caada	-0.07649775
211	0x3dd47b10	0.10375035
212	0xbd534805	-0.051582355
213	0xbe045475	-0.12922843
214	0x3c9c3a71	0.019070836
215	0xbd82d9c9	-0.063891955
216	0xbdb47739	-0.088118024
217	0x3de85baf	0.11345612
218	0xbba45eb3	-0.005016172
219	0x3d9fd81b	0.07804891
220	0x3d8ea629	0.06965286
221	0xbe19f620	-0.15035295
222	0x3ddf3661	0.10899044
223	0xbdb10ca3	-0.086449884
224	0xbd724726	-0.059149884
225	0xbde9b38f	-0.11411201
226	0xbe24a2e1	-0.16077758
227	0xbda730d0	-0.08163607
228	0xbda00c10	-0.07814801
229	0xbd5dc71a	-0.054144956
230	0xbd552623	-0.052038323
231	0xbd956b6b	-0.07295879
232	0x3e065b56	0.1312078
233	0xbe10a172	-0.14124086
234	0xbdd7cc6c	-0.10537037
235	0xbd16ce8d	-0.036818076
236	0xbd8c1935	-0.06840745
237	0x3dc4ff2a	0.09618981
238	0x3c99d4d4	0.018778242
239	0x3b479ba7	0.0030457766
240	0xbd572483	-0.052525055
241	0xbd4f1d1d	-0.050564874
242	0xbd55d5d0	-0.05220586
243	0xbdb7b275	-0.08969585
244	0xbde3c369	-0.11121256
245	0x3c9de9c4	0.019276507
246	0x3da54c99	0.080712505
247	0xbd42806d	-0.047485758
248	0x3d15782d	0.03649156
249	0xbd447dd0	-0.047971547
250	0x3d9d45f8	0.07679361
251	0x3dcb9f96	0.09942548
252	0x3ba34b0a	0.0049833106
253	0x3d27d924	0.040978566
254	0x3d941681	0.07230855
255	0xbd0ba68f	-0.03409439

net.2.bias f4 [64]
0	0xbd806bb8	-0.06270546
1	0xbe104ce2	-0.14091828
2	0x3e3d359c	0.18477482
3	0xbcb11ba9	-0.021619635
4	0xbdb3ea5d	-0.087849356
5	0x3d86c641	0.06580783
6	0x3e1c242c	0.15248173
7	0x3d08aa80	0.033365726
8	0xbdfa92be	-0.1223502
9	0x3e1c98f6	0.15292725
10	0x3df1e8f8	0.118120134
11	0x3dbbe18e	0.091738805
12	0x3e0da4b3	0.13832359
13	0x3d949c29	0.07256348
14	0x3b17cfba	0.0023164586
15	0x3de17c1d	0.11010001
16	0x3d719d9a	0.05898819
17	0x3c1363fa	0.008996004
18	0x3de44bdf	0.11147284
19	0x3d8d7f5c	0.069090575
20	0x3e5ade1b	0.21373789
21	0x3e169d35	0.14708407
22	0x3d0c8b3d	0.034312475
23	0xbdcc8e16	-0.09988038
24	0xbeac52ce	-0.33656925
25	0xbb120387	-0.0022279934
26	0xbdd54803	-0.10414126
27	0xbdb0e864	-0.08638075
28	0x3d85261e	0.06501411
29	0x3de51751	0.11186088
30	0x3e61a8e7	0.22037087
31	0xbca9b17d	-0.020714516
32	0xbcb35cd6	-0.021894854
33	0x3ee927ea	0.45538265
34	0x3d970f0a	0.07375915
35	0xbea6242f	-0.3244948
36	0x3d46621d	0.048433412
37	0xbcefb381	-0.029260399
38	0xbd220997	-0.039559927
39	0x3c2a9896	0.010412356
40	0x3d6d338d	0.05791049
41	0x3e408b4a	0.18803135
42	0xbdf1bb74	-0.11803332
43	0x3cacf829	0.021114426
44	0x3d68d853	0.056846928
45	0xbcc6b1df	-0.024254737
46	0x3df25688	0.11832911
47	0x3ceed603	0.029154783
48	0xbde2df34	-0.11077729
49	0x3e3b9b3e	0.18320939
50	0xbe078f58	-0.13238275
51	0x3e26cfff	0.16290282
52	0x3b1c7180	0.0023871362
53	0xbbe11f82	-0.006870211
54	0x3d97111f	0.073763125
55	0xbdc9c17e	-0.09851359
56	0xbd7bf255	-0.061510403
57	0xbdaf4e20	-0.08559823
58	0xbcbe54fd	-0.023233885
59	0xbd581f1c	-0.052764043
60	0x3e0a0f4c	0.13482398
61	0x3d8783ed	0.0661696
62	0x3e182581	0.14858057
63	0xbc24145b	-0.010014619

net.3.weight f4 [64]
0	0x3f80b05e	1.0053823
1	0x3f82f58c	1.0231185
2	0x3f96bcb9	1.1776344
3	0x3f79f02f	0.97632116
4	0x3f72510e	0.9465493
5	0x3f7c39ac	0.985255
6	0x3f807ab5	1.0037447
7	0x3f663c9b	0.89936227
8	0x3f7ff653	0.99985236
9	0x3f7cd319	0.9875961
10	0x3f7dc829	0.99133545
11	0x3f7af9ca	0.980374
12	0x3f80393d	1.0017468
13	0x3f769ccc	0.96333003
14	0x3f807af0	1.0037518
15	0x3f72c418	0.94830465
16	0x3f8051cb	1.0024961
17	0x3f78f3f1	0.97247225
18	0x3f78889b	0.97083443
19	0x3f7a0d2d	0.97676355
20	0x3f7fa752	0.99864686
21	0x3f808ddc	1.0043292
22	0x3f74a39b	0.9556214
23	0x3f643836	0.8914827
24	0x3f7e4c20	0.9933491
25	0x3f761c3b	0.96136826
26	0x3f7dee49	0.9919172
27	0x3f7a629d	0.9780672
28	0x3f79dbc9	0.9760099
29	0x3f7bd334	0.98369145
30	0x3f77d765	0.9681304
31	0x3f78035c	0.96880126
32	0x3f7f3930	0.99696636
33	0x3f8b22df	1.0870017
34	0x3f71c15a	0.94435656
35	0x3f7a9613	0.97885245
36	0x3f76ca76	0.9640268
37	0x3f7aabd8	0.9791846
38	0x3f758838	0.9591098
39	0x3f7c59c3	0.98574466
40	0x3f7ecc53	0.99530524
41	0x3f81a4bd	1.0128399
42	0x3f7b74c5	0.9822505
43	0x3f6b265f	0.91855425
44	0x3f763394	0.9617245
45	0x3f7d244d	0.98883516
46	0x3f7d8362	0.990286
47	0x3f675e23	0.90378016
48	0x3f7e6588	0.99373674
49	0x3f77f856	0.96863306
50	0x3f76b864	0.9637511
51	0x3f7ff870	0.9998846
52	0x3f81bab0	1.0135098
53	0x3f7f60b6	0.99756944
54	0x3f6f1ea5	0.93406135
55	0x3f7c39df	0.98525804
56	0x3f81c11d	1.0137058
57	0x3f720f8a	0.9455496
58	0x3f790b77	0.9728312
59	0x3f79bb7b	0.975517
60	0x3f83ab2c	1.0286613
61	0x3f763211	0.96170145
62	0x3f7ceb60	0.98796654
63	0x3f794c33	0.97381896

net.3.bias f4 [64]
0	0xbdf67838	-0.12034649
1	0x3cca40f9	0.024689185
2	0xbdd179b6	-0.10228293
3	0xbba01551	-0.0048853536
4	0xbc72ad1b	-0.014811779
5	0xbc0732b8	-0.008251838
6	0xbdc2aea2	-0.09505965
7	0x3cdc8318	0.02691798
8	0x3db219b3	0.08696308
9	0x3dee617e	0.11639689
10	0xbdc5eaa6	-0.09663896
11	0xbd587db3	-0.05285425
12	0x3db0a317	0.08624857
13	0xbd8e7f75	-0.06957904
14	0x3ce839fe	0.028347965
15	0x3d1a1299	0.037615392
16	0x3e0c58bb	0.13705723
17	0xbd12adb5	-0.03581019
18	0xbdb18e50	-0.08669722
19	0x3cf28935	0.029606441
20	0x3e5a7ea3	0.2133737
21	0x3e6338ea	0.2218968
22	0x3d6d7b30	0.05797881
23	0x3e08eb31	0.13370968
24	0xbda2fa53	-0.07957902
25	0x3d33afbf	0.043868776
26	0xbd607b8a	-0.054805316
27	0x3d988348	0.07446915
28	0x3d862bfb	0.06551357
29	0x3e1b4cff	0.1516609
30	0xbe15628a	-0.14588371
31	0xbd33102b	-0.04371659
32	0x3de5fdee	0.11230074
33	0xbe363f99	-0.17797698
34	0x3d05dd65	0.03268184
35	0x3c0bad83	0.008525255
36	0xbd6d88a1	-0.057991628
37	0x3def26fb	0.11677357
38	0x3d9dad68	0.0769909
39	0x3d11b29f	0.035570737
40	0x3dd6fc85	0.10497383
41	0x3e0a7839	0.13522424
42	0x3d26c894	0.04071863
43	0xbbbf0f14	-0.005830655
44	0xbc60d6e5	-0.01372311
45	0xbd8cf00b	-0.06881722
46	0x3dfcfcc7	0.12352901
47	0xbd71c414	-0.059024885
48	0xbd45de6e	-0.04830783
49	0xbc319e42	-0.010840954
50	0xbd968f89	-0.07351596
51	0x3df28d9b	0.11843415
52	0x3dd0cf82	0.10195829
53	0x3e421f04	0.18957144
54	0x3d680a73	0.05665059
55	0xbd51c288	-0.05121091
56	0xbdd25c62	-0.10271527
57	0xbd3f657c	-0.046727642
58	0x3d0611aa	0.03273169
59	0xbb924c84	-0.004464688
60	0xbda0ce70	-0.07851875
61	0x3dabb4ca	0.08384092
62	0xbd74ba37	-0.0597479
63	0x3db2891d	0.087175585

net.3.running_mean f4 [64]
0	0xbf1cdf0f	-0.6127786
1	0x3eb9cd20	0.3628931
2	0xbfb4b1f1	-1.4116803
3	0x3cf9a23c	0.030472867
4	0x3e0488be	0.12942788
5	0xbe3714f1	-0.17879082
6	0xbee9a2e2	-0.45632082
7	0xbda448f2	-0.08021726
8	0xbd0df9b9	-0.034661982
9	0x3f49171c	0.7855089
10	0xbd731912	-0.05935008
11	0x3ebf8bcb	0.3741134
12	0x3f821fac	1.0165915
13	0xbec08e8c	-0.37608755
14	0xbeb57b72	-0.35445744
15	0x3fbd9ae1	1.481289
16	0x3f2f37b6	0.68444383
17	0xbe755b62	-0.23960641
18	0x3d53a5f2	0.05167193
19	0xbeeec54b	-0.46634898
20	0x3f020e6b	0.5080325
21	0x3f3b8506	0.7324985
22	0x3d001093	0.031265806
23	0x3e89a6ee	0.2688517
24	0xbfab6604	-1.3390508
25	0x3da3982d	0.079880096
26	0xbe0feb68	-0.14054644
27	0x3ef6bb80	0.48189926
28	0x3d10bfb3	0.03533907
29	0x3e68d619	0.22737922
30	0xbebd3ba8	-0.36959577
31	0xbf3b63fa	-0.7319943
32	0x3f19cfaf	0.60082525
33	0xbf653dac	-0.8954723
34	0x3f0a1b74	0.5394814
35	0x3f9cd01b	1.2251009
36	0x3eb26264	0.3484069
37	0x3ec28758	0.37993884
38	0xbf461473	-0.77374953
39	0x3f3299cf	0.69765943
40	0xbd5b8531	-0.053593818
41	0x3f9b8f75	1.2153155
42	0xbf2ba8bb	-0.6705434
43	0xbf162884	-0.5865557
44	0x3f13b547	0.5769848
45	0xbf07a461	-0.529852
46	0xbea20e2f	-0.31651446
47	0xbdcc39ee	-0.09971987
48	0xbf73c2b7	-0.95218986
49	0xbebb8c93	-0.36630687
50	0x3ec8cf6c	0.3922075
51	0x3f00322a	0.50076544
52	0x3f65cfdc	0.89770293
53	0x3f5b4f9f	0.8566837
54	0x3efedb12	0.49776512
55	0xbee1c69e	-0.44096845
56	0xbcf9db60	-0.030500114
57	0x3f00f3ef	0.50372213
58	0x3d9627aa	0.07331784
59	0x3ddb96b9	0.107221074
60	0xbf9a63a1	-1.2061654
61	0xbd91905e	-0.07107614
62	0xbf813071	-1.0092908
63	0xbf8cbaf1	-1.099455

net.3.running_var f4 [64]
0	0x3be53fdc	0.006996138
1	0x3c0d2a43	0.008616033
2	0x3b35bc62	0.0027730693
3	0x3d04c6b5	0.032416064
4	0x3cd2408d	0.025665546
5	0x3d0de4cf	0.034642037
6	0x3b9e7cb7	0.0048366445
7	0x3c5a94b4	0.013341118
8	0x3c100a52	0.008791523
9	0x3c981144	0.01856292
10	0x3c49b745	0.012311761
11	0x3bbbd69e	0.0057323715
12	0x3c18b7c9	0.009321162
13	0x3cee2efb	0.029075136
14	0x3c237e8d	0.0099789025
15	0x3bfa7cf2	0.007644289
16	0x3cdec22a	0.027192194
17	0x3cbf389b	0.023342421
18	0x3c78bd2f	0.015181824
19	0x3c9689d0	0.018376261
20	0x3ccbb4b1	0.024866434
21	0x3b505d7e	0.0031794007
22	0x3c8bb140	0.017052293
23	0x3adf0462	0.0017014856
24	0x3be54f86	0.0069980053
25	0x3c7de826	0.015497243
26	0x3c64db8a	0.013968358
27	0x3b7ec89d	0.00388769
28	0x3ca7845f	0.020448862
29	0x3c99f1e8	0.018792108
30	0x3c8a25ab	0.016863665
31	0x3b028ed7	0.0019921565
32	0x3c89de59	0.016829656
33	0x3b1af88e	0.0023646685
34	0x3cb3db16	0.021955054
35	0x3b9083d1	0.004410245
36	0x3d188765	0.037238497
37	0x3b9c8173	0.0047761737
38	0x3cf2bea4	0.02963192
39	0x3acc4a6b	0.0015586143
40	0x3c231f7c	0.009956237
41	0x3c404145	0.0117343115
42	0x3c24252a	0.010018626
43	0x3c1631a6	0.009167111
44	0x3c0573da	0.008145297
45	0x3c35564d	0.011067939
46	0x3cab27fc	0.02089309
47	0x3d147b2b	0.036250275
48	0x3d5881b6	0.052858077
49	0x3c454f54	0.012042839
50	0x3caa971e	0.020824011
51	0x3c56bc95	0.013106485
52	0x3b5854df	0.0033009571
53	0x3c81c83c	0.01584255
54	0x3c04aa8b	0.008097301
55	0x3c0a6a9d	0.00844827
56	0x3bc4803d	0.0059967325
57	0x3cb2178e	0.021739747
58	0x3c9e4b2d	0.019322956
59	0x3cb747bf	0.022373078
60	0x3b236a15	0.0024935056
61	0x3b68312f	0.0035429706
62	0x3b2bdfe9	0.002622599
63	0x3bec1eee	0.0072058355

net.5.weight f4 [32, 64]
0	0xbb9fd4c8	-0.0048776604
1	0xbd584061	-0.05279577
2	0x3da3c790	0.07997048
3	0xbda57166	-0.0807827
4	0xbdd282e0	-0.10278869
5	0xbc895fbc	-0.016769283
6	0x3cf4e24b	0.029893061
7	0x3d829041	0.063751705
8	0xbd1fb3f1	-0.038989965
9	0x3c8f7825	0.017513344
10	0xbd521d3f	-0.051297422
11	0xbd480570	-0.04883331
12	0xbbb07505	-0.0053850436
13	0xbbe1c5f7	-0.0068900543
14	0xbbd36d62	-0.0064522484
15	0xbd72f7e4	-0.05931844
16	0xbd9d0dcb	-0.076686464
17	0x3cedd5fb	0.029032698
18	0xbd95197d	-0.07280252
19	0xbd8d5445	-0.06900839
20	0xbda2cb9f	-0.07948994
21	0x3c9401c7	0.018067254
22	0x3d0f4928	0.034981877
23	0xbd8dc5ef	-0.069225185
24	0x3de19042	0.11013843
25	0x3d9e17b0	0.07719362
26	0xbb541f54	-0.0032367306
27	0x3d506a1c	0.050882444
28	0xbdf486d1	-0.11939777
29	0x3c4615de	0.0120901745
30	0x3da120bb	0.07867571
31	0x3d8adb36	0.067800924
32	0xbd9e5bb1	-0.077323325
33	0x3e3cfcc8	0.18455803
34	0x3dbc14c7	0.091836505
35	0x3d312e64	0.043257132
36	0x3d8694be	0.06571339
37	0xbbf72261	-0.00754194
38	0x3da3aad3	0.079915665
39	0xbc1d0bc3	-0.009585324
40	0xbdd1b5b2	-0.10239734
41	0xbd30ad9c	-0.043134317
42	0x3d1a528b	0.037676375
43	0x3d026471	0.03183407
44	0xbde40127	-0.11133032
45	0xbd3efd2f	-0.046628173
46	0xbd079e1c	-0.03310977
47	0x3db79916	0.08964746
48	0x3d2351d0	0.039872944
49	0x3cfb6f0d	0.030692602
50	0x3d87d621	0.06632639
51	0xbda35824	-0.07975796
52	0xbe06df2d	-0.13171072
53	0xbd10ccba	-0.035351492
54	0xbcc73a9b	-0.024319937
55	0x3d1a0872	0.03760571
56	0xbdb4d7c2	-0.08830215
57	0xbdab8e35	-0.08376733
58	0xbd035faf	-0.032073673
59	0xbd3a0405	-0.04541399
60	0x3dc3dfd6	0.09564178
61	0x3d3401fd	0.04394721
62	0xbc4f76c5	-0.012662594
63	0x3d94bb0f	0.07262241
64	0x3cc45fe1	0.0239715
65	0xbe262e56	-0.16228613
66	0x3ce7d092	0.028297696
67	0xbab2d6ad	-0.0013644301
68	0xbcea0779	-0.028568016
69	0xbd1bfb8c	-0.03808169
70	0xbdd6d384	-0.10489562
71	0x3d998ce5	0.074975766
72	0x3d2f40d8	0.04278645
73	0xbe181f86	-0.14855775
74	0x3dc0da69	0.094166584
75	0xbda9bca2	-0.08287932
76	0xbda90c4d	-0.08254299
77	0xbcc23a0a	-0.023709316
78	0xbdb9d679	-0.090741105
79	0x3ca95ae4	0.020673223
80	0x3df45d9d	0.11931918
81	0xbdf07453	-0.11740937
82	0xbda18769	-0.078871556
83	0x3de934a8	0.113869965
84	0x3dd6cbb0	0.10488069
85	0x3db82e5c	0.08993217
86	0x3d1d868c	0.038458392
87	0x3d839f45	0.064268626
88	0xbe32726f	-0.17426465
89	0xbd55131f	-0.05202019
90	0xbd2862dc	-0.041109905
91	0xbdaef309	-0.08542449
92	0x3b4bdf71	0.0031108523
93	0x3db87929	0.090074845
94	0xbd6633e8	-0.056201845
95	0x3d851964	0.064989835
96	0x3d175e67	0.036955263
97	0xbdaed2a3	-0.085362695
98	0x3d0bb750	0.034110367
99	0x3d21b6de	0.039481036
100	0x3da03ae2	0.07823731
101	0x3bc46eb4	0.005994642
102	0x3d0b6385	0.034030456
103	0x3dafbd1f	0.08580994
104	0x3df2acd3	0.1184937
105	0x3da3324e	0.07968579
106	0xbd4aefc4	-0.049545065
107	0x3d66389f	0.05620634
108	0xbae3a5bd	-0.001736812
109	0x3d6fcb86	0.058543704
110	0xbc32fe53	-0.010924893
111	0x3dd1f410	0.10251629
112	0xbd9e369c	-0.0772526
113	0xbce195b2	-0.0275372
114	0xbda5ed7c	-0.08101937
115	0xbd4201a1	-0.047364835
116	0xbddb6faf	-0.10714661
117	0xbda32515	-0.07966057
118	0xbd1784ad	-0.036991764
119	0xbd57a936	-0.052651607
120	0xbdc0ac7b	-0.09407898
121	0xbd8ad5a8	-0.06779033
122	0x3d6f2953	0.05838902
123	0xbdaab543	-0.08335354
124	0x3d633611	0.055471484
125	0x3a6d1ab6	0.0009044813
126	0x3c978a73	0.018498635
127	0xbc7b7d69	-0.015349724
128	0xbcfb50e9	-0.03067823
129	0x3dcb7091	0.0993358
130	0xbe7f6450	-0.2494061
131	0xbcb8df1d	-0.022567326
132	0xbb1bf150	-0.0023794957
133	0x3db140c5	0.08654932
134	0xbdc7d751	-0.09757865
135	0x3cddf33a	0.027093519
136	0x3de1fbf7	0.110343866
137	0x3d2e6288	0.042574435
138	0xbdc1c633	-0.094616316
139	0xbde687a4	-0.1125634
140	0xbbde039b	-0.006775332
141	0x3c4b246d	0.012398821
142	0xbc4ed3ed	-0.012623769
143	0xbd2d3586	-0.042287372
144	0x3d4f1cb1	0.05056447
145	0xbd41b627	-0.047292855
146	0xbd4fccfc	-0.050732598
147	0x3ba05121	0.004892484
148	0x3d974053	0.07385316
149	0xbbd2c447	-0.0064320895
150	0x3d1d236f	0.03836387
151	0x3d90dd07	0.070734076
152	0xbd8569a6	-0.065142915
153	0x3dda75ba	0.10666986
154	0x3d90b1e4	0.0706518
155	0x3938f135	0.00017637464
156	0x3ca3bbba	0.019986976
157	0x3da98639	0.08277554
158	0x3d3707de	0.044685237
159	0xbd2cf503	-0.04222585
160	0xbd6786fa	-0.056525208
161	0xbe0efe25	-0.13964136
162	0xbc689488	-0.014195569
163	0xbd7f298e	-0.06229549
164	0xbcf711fe	-0.030159947
165	0x3d876194	0.066104084
166	0x3dbfc2c3	0.0936332
167	0x3db52f72	0.0884694
168	0x3da0f291	0.07858766
169	0xbd52bd10	-0.051449835
170	0xbddb9cb4	-0.10723248
171	0x3d9ec7a9	0.07752926
172	0x3d0c006d	0.034180094
173	0xbbd8260d	-0.006596333
174	0x3d98211e	0.074281916
175	0xbbb32a97	-0.0054677236
176	0xbdaf9c60	-0.08574748
177	0x3ccc619b	0.024948886
178	0x3d709620	0.05873692
179	0x3de67242	0.11252262
180	0xbe095b32	-0.13413695
181	0x3e1b4edf	0.15166806
182	0x3ce90d61	0.028448762
183	0xbdccbb24	-0.09996632
184	0xbd891e69	-0.066952534
185	0xbdb38f3c	-0.08767554
186	0x3d515870	0.05110973
187	0xbd4dab24	-0.05021204
188	0xbe0d5702	-0.13802722
189	0x3da74026	0.08166532
190	0xbdc8765f	-0.097882025
191	0x3d98f214	0.07468048
192	0xbdbdf488	-0.09275156
193	0xbc715dcf	-0.014731838
194	0xbcc63c1a	-0.02419858
195	0xbd5cf439	-0.053943846
196	0x3dd6e388	0.10492617
197	0xbdc66ba9	-0.09688503
198	0x3c506760	0.012719959
199	0x3db38719	0.08766002
200	0xbb632dcc	-0.0034664748
201	0x3b8de721	0.004330531
202	0x3dc373f6	0.09543602
203	0xbb395c7c	-0.0028283885
204	0xbdd4f3e3	-0.1039808
205	0x3d68fba8	0.056880623
206	0x3da54825	0.08070401
207	0x3d5151a4	0.05110325
208	0x3dc53d3d	0.09630821
209	0x3b8c1656	0.0042751236
210	0x3d8a10a5	0.06741456
211	0x3d82f351	0.06394065
212	0x3cf25cd7	0.029585285
213	0x3d88ec05	0.06685642
214	0xbd9855f4	-0.07438269
215	0xbd4c6551	-0.04990131
216	0xbd36d434	-0.044635966
217	0xbd418193	-0.047242712
218	0xbd4b7c46	-0.049679063
219	0xbce36412	-0.027757678
220	0x3cadc7d0	0.021213442
221	0xbd2ac0a5	-0.041687626
222	0x3b13419e	0.002246953
223	0xbd06315d	-0.03276192
224	0xbe16d791	-0.1473067
225	0x3db75b87	0.08953004
226	0x3dce5a48	0.100758135
227	0xbdc1d4be	-0.094644055
228	0xbdc238fa	-0.09483524
229	0xbd46c1b2	-0.048524566
230	0x3ccc0a1a	0.02490716
231	0xbe0440cd	-0.12915345
232	0xbd25aac7	-0.04044607
233	0xbdec402a	-0.11535676
234	0xbd68de23	-0.05685247
235	0x3b2399a5	0.0024963405
236	0xbdc4a742	-0.096022144
237	0xbd16f45e	-0.03685414
238	0xbdebb0d4	-0.11508337
239	0xbd2ae35d	-0.041720737
240	0x3c96ee53	0.018424189
241	0x3cdcdb03	0.026959902
242	0x3d4ac8d0	0.049507916
243	0xbd1e3fbb	-0.038634997
244	0xbd945322	-0.07242419
245	0xbdbce568	-0.09223443
246	0x3da3b3a7	0.0799325
247	0x3dbb7793	0.09153666
248	0xbd2936f5	-0.041312177
249	0x3d1b9681	0.03798533
250	0x3dd4739f	0.103736155
251	0x3cc81bc0	0.024427295
252	0x3de7c896	0.113175556
253	0xbd0eba3f	-0.034845587
254	0xbd040a81	-0.03223658
255	0x3ca2911e	0.019844588

net.5.bias f4 [32]
0	0xbe182606	-0.14858255
1	0x3cfd850a	0.030947227
2	0x3e2c5b23	0.16831641
3	0xbcefa9ff	-0.029255865
4	0x3d428588	0.047490627
5	0xbdc10601	-0.09424973
6	0xbe57cb15	-0.21073563
7	0xbdaa70ab	-0.08322271
8	0x3db02ed7	0.08602684
9	0x3abff27d	0.0014644411
10	0x3d5f8ba9	0.05457655
11	0xbe0e8a18	-0.13919866
12	0x3d54c8b3	0.051949214
13	0x3de27aee	0.11058603
14	0x3dc8eb1f	0.09810471
15	0xbd58da6e	-0.052942686
16	0x3d0ac2ad	0.033877064
17	0x3dfb8b75	0.12282459
18	0x3e08108c	0.13287562
19	0xbdb60560	-0.08887744
20	0xbdc170a5	-0.09445313
21	0xbe57f00a	-0.21087661
22	0x3ce7df23	0.028304642
23	0x3e246102	0.1605263
24	0xbe60347c	-0.21895021
25	0x3d5f66f5	0.054541547
26	0xbcb15111	-0.0216451
27	0xbbabedd6	-0.005246858
28	0x3d99ef5c	0.07516357
29	0xbde5a66c	-0.11213383
30	0xbd9e6f09	-0.07736022
31	0xbdbe3d88	-0.0928908

net.7.weight f4 [16, 32]
0	0x3d8305e9	0.06397612
1	0xbb8ce473	-0.004299694
2	0x3db2522c	0.08707079
3	0xbdd736a3	-0.10508468
4	0x3dcf999f	0.10136723
5	0x3e1490da	0.14508381
6	0x3e4f0b9d	0.20219274
7	0xbeaba62e	-0.33525223
8	0xbc1b8c4b	-0.009493898
9	0x3dba439b	0.09094926
10	0x3d2ea607	0.042638805
11	0x3de5acfe	0.11214636
12	0x3e0c7c6a	0.13719335
13	0xbd87801f	-0.06616234
14	0x3db421e8	0.087955296
15	0xbde1111c	-0.109895915
16	0x3d82ed40	0.06392908
17	0x3d725545	0.05916335
18	0xbd8f9ef7	-0.07012742
19	0xbda31547	-0.07963043
20	0x3d6e41fa	0.05816839
21	0x3d559e16	0.052152716
22	0x3e1c2432	0.15248182
23	0x3d9069d5	0.07051436
24	0xbe2081ee	-0.15674564
25	0xbd66c563	-0.056340586
26	0xbdb701c4	-0.08935884
27	0xbc40441c	-0.011734989
28	0x3d405b90	0.04696232
29	0x3d474145	0.04864623
30	0xbd93a33f	-0.07208871
31	0x3c504aed	0.012713176
32	0x3e694c33	0.22782974
33	0xbd04e6e8	-0.03244677
34	0x3d7e82f8	0.06213662
35	0x3c778e4b	0.015109609
36	0x3d309feb	0.04312126
37	0xbb90a1b0	-0.004413806
38	0x3da33aec	0.07970223
39	0x3e94e289	0.29079083
40	0x3e4a9f57	0.19787346
41	0xbd9d8c6c	-0.07692799
42	0x3c969590	0.018381864
43	0xbe059809	-0.13046278
44	0xbca6bd9a	-0.020354081
45	0xbd41c659	-0.0473083
46	0xbddc42dc	-0.1075494
47	0xbcb70c64	-0.022344775
48	0xb9eb7277	-0.00044907976
49	0xbd3d2887	-0.046181228
50	0xbe1b6c1a	-0.15177956
51	0xbcc3b061	-0.023887815
52	0xbd82ffe7	-0.06396466
53	0x3dc02626	0.09382276
54	0xbd34ba75	-0.04412313
55	0x3d30a8e3	0.043129813
56	0x3e2d9c2a	0.16954103
57	0xbd345b4b	-0.044032376
58	0xbd1f4962	-0.038888343
59	0x3bf57daa	0.007491787
60	0x3db1b3c8	0.08676869
61	0xbd5d934b	-0.054095548
62	0x3c9425f0	0.018084496
63	0x3e3c1b3c	0.18369764
64	0xbd3ac80a	-0.04560093
65	0x3ba8a741	0.0051468913
66	0xbdfedead	-0.12444816
67	0xbe2ed4df	-0.17073391
68	0x3c970f69	0.018439965
69	0xbd929303	-0.071569465
70	0x3d8d422a	0.068973854
71	0xbe931e2b	-0.28733954
72	0x3cb96a78	0.022633776
73	0xbe3439e9	-0.17600216
74	0xbb8f0855	-0.004365007
75	0x3dc5f162	0.09665181
76	0xbd9573f7	-0.07297509
77	0xbd8e1291	-0.06937135
78	0xbdc45e20	-0.095882654
79	0xbde178b5	-0.11009351
80	0x3da58deb	0.08083709
81	0x3d4a4c7d	0.04938935
82	0x3b8a2766	0.0042161224
83	0xbd4daa66	-0.050211333
84	0xbd32db00	-0.043665886
85	0xbc9a6e0f	-0.018851308
86	0x3d923c26	0.07140379
87	0x3cf1c10d	0.029511
88	0xbec5b7d6	-0.38616818
89	0xbd8113e1	-0.0630262
90	0xbe2130cd	-0.15741272
91	0xbe3d90b0	-0.18512225
92	0x3bfe405f	0.0077591385
93	0x3c29be57	0.010360322
94	0x3dd6afd4	0.10482755
95	0xbcfdff54	-0.031005539
96	0x3d76baa1	0.060236577
97	0x3c9e97b9	0.019359456
98	0xbe720fc9	-0.23638834
99	0xbd6aecf6	-0.05735489
100	0xbda24fec	-0.079254
101	0xbe33581e	-0.17514083
102	0xbdbb9f28	-0.09161216
103	0xbe878352	-0.26467377
104	0xbd97436e	-0.07385908
105	0xbd08640f	-0.03329855
106	0xbdc8dacf	-0.098073594
107	0x3d73357d	0.059377182
108	0xbde9bedb	-0.11413356
109	0xbe31b9a9	-0.1735598
110	0xbd5fa7a9	-0.054603253
111	0x3d7a6d6d	0.061139513
112	0x3dd12872	0.102127925
113	0xbe0a42fd	-0.13502117
114	0x3dca01f2	0.09863652
115	0x3c911efa	0.017714966
116	0xbdd1e4a3	-0.10248687
117	0xbd4e482f	-0.05036181
118	0x3d9977b2	0.07493533
119	0xbd121a3d	-0.035669554
120	0xbee7283d	-0.45147887
121	0x3d1dce81	0.038527016
122	0xbd7f479f	-0.062324163
123	0xbdb43536	-0.08799212
124	0xbcf8532a	-0.030313093
125	0xbad32434	-0.0016108812
126	0xbda170ca	-0.07882841
127	0xbcf51c8e	-0.029920842
128	0xbdd2b96f	-0.10289275
129	0x3dd622cf	0.10455858
130	0xbe7b82ac	-0.24561566
131	0x3d9c6c23	0.07637813
132	0x3e06c186	0.13159761
133	0xbcae5ae3	-0.021283573
134	0xbce44cc1	-0.02786863
135	0x3d87833f	0.0661683
136	0xbd4f55ce	-0.05061894
137	0xbe2dd25a	-0.16974774
138	0x3c1359fd	0.008993623
139	0xbd452470	-0.048130453
140	0x3d6916f0	0.05690664
141	0x3e17abc0	0.14811611
142	0x3c76610b	0.015037785
143	0xbd226327	-0.03964534
144	0xbc65d84e	-0.014028622
145	0xbe0a8f38	-0.13531196
146	0xbda6d181	-0.081454284
147	0x3ca52e4b	0.020163676
148	0xbe2dc162	-0.16968301
149	0xbe0b0ff5	-0.13580306
150	0xbdeb6873	-0.114945315
151	0xbd9999e1	-0.07500053
152	0xbd7d2838	-0.061805934
153	0xbe023e1b	-0.12719004
154	0x3d41ac27	0.047283318
155	0xbdd6d65d	-0.10490105
156	0xbd40f2fd	-0.04710673
157	0x3d7059db	0.058679443
158	0x3d361c2c	0.04446046
159	0xbe3fd256	-0.1873258
160	0xbddb22d0	-0.10699999
161	0xbdef6439	-0.11689038
162	0xbdc9ee96	-0.0985996
163	0xbe6f3d1e	-0.23363158
164	0xbdea8fa9	-0.11453182
165	0xbe42a93f	-0.19009875
166	0x3d13eeca	0.0361164
167	0xbe429524	-0.19002205
168	0xbddb6db6	-0.10714285
169	0xbdac00c5	-0.08398584
170	0xbe00ae3b	-0.12566464
171	0x3d6edb40	0.05831456
172	0xbe36097e	-0.17777058
173	0xbe06c82c	-0.13162297
174	0xbdb29c16	-0.08721177
175	0x3c3cda88	0.011526711
176	0x3dbdd53b	0.09269186
177	0xbccb6323	-0.024827546
178	0xbd8f4f19	-0.069975086
179	0x3e2b081e	0.16702315
180	0xbc596e94	-0.013270993
181	0xbe02b4fb	-0.12764351
182	0x3da06b8e	0.078330144
183	0xbe0cf5a6	-0.13765582
184	0xbedc9feb	-0.43090758
185	0x3defdaa0	0.11711621
186	0xbe1dfb88	-0.15427983
187	0x3d49ed20	0.049298406
188	0x3d775144	0.060380235
189	0x3d09348f	0.03349739
190	0x3e103d06	0.14085779
191	0xbe553728	-0.20821822
192	0xbe656379	-0.22401227
193	0xbe47cf45	-0.19512661
194	0x3bbe1d7d	0.005801855
195	0x3c2e55c9	0.01064057
196	0xbe192051	-0.14953734
197	0xbda9f1cd	-0.08298073
198	0xbb80564b	-0.003916537
199	0xbe33f876	-0.17575249
200	0xbe713263	-0.23554377
201	0x3d35cbf7	0.04438397
202	0x3c860fbc	0.016364925
203	0x3e5732fc	0.21015543
204	0x3c9fe52e	0.019518461
205	0xbcdb3901	-0.02676058
206	0x3dd32020	0.10308862
207	0xbcfeda1d	-0.031109864
208	0x3dbac21b	0.09119054
209	0x3ddf82b2	0.109136
210	0xbe210bb6	-0.15727124
211	0xbe1d3f31	-0.15356137
212	0xbc161c3b	-0.009162004
213	0x3dbee630	0.093212485
214	0xbdaafbef	-0.08348834
215	0x398e38c4	0.00027126644
216	0xbe4c542b	-0.19953983
217	0x3dda79ee	0.106677875
218	0xbdc577be	-0.0964198
219	0xbe0f42d9	-0.13990344
220	0xbd8e36b8	-0.069440305
221	0x3dd92861	0.10603405
222	0xbb647c94	-0.0034864293
223	0xbd43882d	-0.04773729
224	0x3c22a910	0.009928003
225	0xbcf329ac	-0.029682957
226	0xbd014e6e	-0.031568937
227	0xbcfe9710	-0.031077892
228	0x3dd76721	0.10517717
229	0x3d5d1f96	0.0539852
230	0xbe043606	-0.12911233
231	0x3ba4ba38	0.005027082
232	0x3dcfdfbe	0.10150097
233	0xbe25c7df	-0.16189526
234	0xbd15da8a	-0.03658537
235	0xbdc5cc54	-0.09658113
236	0x3dce8095	0.10083119
237	0x3ddd9fa4	0.10821465
238	0x3e53b8a9	0.20675911
239	0xbdcda84f	-0.10041868
240	0xbde4f415	-0.111793675
241	0xbd7b2062	-0.06131018
242	0xbe096f04	-0.13421255
243	0xbe3850ff	-0.17999648
244	0xbe20e2e2	-0.15711549
245	0xbcfd698f	-0.030934123
246	0x3e0698c0	0.13144207
247	0x3c128194	0.008942027
248	0xbd944488	-0.07239634
249	0xbda774b0	-0.08176553
250	0xbcd16810	-0.025562316
251	0xbded9c04	-0.11602023
252	0x3dcbac6c	0.09944996
253	0xbdc5c829	-0.09657318
254	0xbde10543	-0.10987332
255	0xbd6dd22c	-0.058061764

net.7.bias f4 [16]
0	0xbe472e78	-0.1945132
1	0x3e671bd1	0.22569205
2	0xbe468aba	-0.19388857
3	0x3d5fe041	0.054657225
4	0x3df1e759	0.11811704
5	0x3e1c124d	0.15241356
6	0x3e40e942	0.18838981
7	0x3de1e1ec	0.11029419
8	0x3d87f3e5	0.06638316
9	0x3d7ebb94	0.062190607
10	0x3dcb18fe	0.09916876
11	0xbd1d79ba	-0.038446166
12	0x3e4eeb7b	0.20207016
13	0xbe2a5fdb	-0.16638128
14	0x3e41652f	0.18886255
15	0xbdd2a35e	-0.10285066

net.8.weight f4 [16]
0	0x3fab76c4	1.3395619
1	0x3fc21aed	1.5164467
2	0x3fc43134	1.5327516
3	0x3fbd6b52	1.4798377
4	0x3fa8865a	1.3166001
5	0x3fc0bf30	1.5058346
6	0x3fbcc3bc	1.4747233
7	0x3f975e78	1.1825705
8	0x3fbb1069	1.4614383
9	0x3fd70e95	1.6801325
10	0x3fd18901	1.6369935
11	0x3fb87b44	1.4412618
12	0x3fc6cb72	1.5530837
13	0x3fd14c25	1.6351362
14	0x3fbfa867	1.4973267
15	0x3fc3c1db	1.5293535

net.8.bias f4 [16]
0	0x3debc0fd	0.11511419
1	0x3e4f151c	0.20222896
2	0x3e5bbef5	0.21459563
3	0x3e8e0696	0.277394
4	0x3e8d26fc	0.27568805
5	0x3e8ec75d	0.27886477
6	0x3e63f160	0.22260046
7	0x3e931cfb	0.28733048
8	0x3e7e3021	0.24823047
9	0x3e37e6c0	0.17959118
10	0x3e4018cd	0.18759461
11	0x3e8c6b6a	0.274257
12	0x3eb66ff3	0.35632285
13	0x3c103d0d	0.008803618
14	0x3e6f8d63	0.23393779
15	0x3d997fe0	0.07495093

net.8.running_mean f4 [16]
0	0xbd8bd1f8	-0.06827158
1	0x3e8c81f8	0.27442908
2	0xbea1cbd9	-0.31600836
3	0xbe173945	-0.1476794
4	0xbd9277b4	-0.07151738
5	0xbcfdcfb9	-0.030982839
6	0x3e1a8366	0.15089187
7	0x3d323e52	0.043516465
8	0x3d24d036	0.040237628
9	0xbaa93dec	-0.0012912131
10	0x3de9426f	0.11389624
11	0xbe4bb45c	-0.1989302
12	0x3c8f4d80	0.01749301
13	0xbe095696	-0.13411936
14	0x3e4fb8cb	0.20285337
15	0xbdccb948	-0.09996277

net.8.running_var f4 [16]
0	0x3b67a1b2	0.003534418
1	0x3d002506	0.03128531
2	0x3d0aa765	0.033851046
3	0x3d579a97	0.052637663
4	0x3c9b29c9	0.018940823
5	0x3da9e4bc	0.08295581
6	0x3d10cd62	0.03535212
7	0x3c83a225	0.016068527
8	0x3d69201f	0.0569154
9	0x3d7e1cad	0.062039066
10	0x3ce8e528	0.028429583
11	0x3cd76d44	0.02629722
12	0x3cad9325	0.021188328
13	0x3d6ac05c	0.057312354
14	0x3cb54cca	0.022131342
15	0x3d467eda	0.04846082

net.10.weight f4 [8, 16]
0	0x3f12514b	0.57155293
1	0x3e2820e7	0.16418801
2	0x3e227ba1	0.15867473
3	0xbdcc9c2c	-0.09990725
4	0xbe64b8ea	-0.22336164
5	0xbea45ca2	-0.32101923
6	0xbea55ded	-0.32298222
7	0xbe63e0e7	-0.22253762
8	0xbe593de2	-0.21215013
9	0xbe6cda92	-0.23130253
10	0xbcdf5f29	-0.027267056
11	0xbe505919	-0.20346488
12	0xbe3504b2	-0.17677572
13	0xbe7e2e56	-0.24822363
14	0x3e6b888a	0.23001304
15	0xbea867c0	-0.32891655
16	0x3ec5dc5a	0.38644677
17	0xbd686fc4	-0.056747213
18	0xbe91bf1e	-0.28466123
19	0x3d7acd17	0.061230745
20	0xbe2fb25a	-0.1715788
21	0x3e41f9a7	0.18942891
22	0x3c8efaf4	0.017453648
23	0xbdb2d5d9	-0.087321945
24	0x3c9d965b	0.019236734
25	0xbcf22c77	-0.029562218
26	0xbd767085	-0.0601659
27	0xbd9bcc6b	-0.07607349
28	0xbe0d417b	-0.1379451
29	0xbda5abcb	-0.080894075
30	0xbea7613b	-0.32691368
31	0xbec88d0c	-0.3917011
32	0xbe2c2d24	-0.16814095
33	0x3efa61e4	0.4890281
34	0x3f139792	0.5765315
35	0x3f0bc6b3	0.54600066
36	0x3e8fe1e9	0.28102043
37	0x3dd7bfe5	0.10534648
38	0x3e29183d	0.16513152
39	0x3e46ed8e	0.19426557
40	0x3ed90a6f	0.42390773
41	0x3f038a45	0.5138286
42	0x3f170915	0.58998233
43	0x3e81e542	0.25370222
44	0x3eb957a7	0.36199686
45	0x3ed3b877	0.41351673
46	0x3ec427c2	0.38311583
47	0x3e640b14	0.22269851
48	0xbdfa96e6	-0.12235813
49	0x3ead15fe	0.3380584
50	0x3eeb320c	0.4593662
51	0x3f0e3d9b	0.5556275
52	0x3ef8b5cc	0.485762
53	0x3f02a568	0.5103364
54	0x3ee17a56	0.44038647
55	0x3ea4a1fb	0.3215483
56	0x3e3af3e1	0.18257095
57	0x3e8c06de	0.2734899
58	0x3ebc39a6	0.36762732
59	0x3ed1020b	0.4082187
60	0x3f056cc6	0.521191
61	0x3f33ffdc	0.70312285
62	0x3df37f3a	0.11889501
63	0x3ea67cb6	0.32517022
64	0x3ed4ca89	0.41560772
65	0xbe2c3d74	-0.16820318
66	0xbdb22dbb	-0.08700129
67	0x3e27b927	0.16379224
68	0xbe0ccbc9	-0.13749613
69	0x3da8c8dc	0.08241436
70	0xbd963b63	-0.07335546
71	0xbe00f9cb	-0.12595288
72	0x3e2a9318	0.16657674
73	0xbe916fdd	-0.28405657
74	0xbe73a546	-0.23793516
75	0x3e19d663	0.15023188
76	0xbe979b37	-0.29610607
77	0xbc9d7ba8	-0.019224003
78	0xbe01d4e0	-0.12678862
79	0x3ca528e5	0.020161102
80	0x3ee1ac21	0.44076636
81	0x3e2c92aa	0.16852823
82	0xbdc3ad7a	-0.095545724
83	0x3da8c757	0.08241146
84	0xbe4ccc22	-0.19999745
85	0xbd80d0b3	-0.06289806
86	0xbeaa5c3e	-0.332735
87	0xbe48bb29	-0.19602646
88	0xbd95157c	-0.072794884
89	0xbef0c1a6	-0.47022742
90	0xbe93bc7d	-0.28854743
91	0xbe06f3fc	-0.1317901
92	0xbe82beb9	-0.25536135
93	0xbd4e0fdd	-0.050308097
94	0x3dde846e	0.10865103
95	0xbe03827c	-0.12842745
96	0xbe56d393	-0.20979147
97	0x3ee38889	0.44440106
98	0x3e3d617c	0.18494219
99	0x3f067106	0.5251621
100	0x3e6b909a	0.2300438
101	0x3ee3c6ae	0.44487518
102	0x3ea9b35c	0.33144653
103	0x3e075abc	0.13218206
104	0x3ecfbdd5	0.40574518
105	0x3f0089b0	0.50210094
106	0x3f0030cc	0.5007446
107	0x3f093d34	0.53609014
108	0x3e95e76e	0.2927813
109	0x3ea15a75	0.31514326
110	0x3ec17684	0.37785733
111	0x3f025e31	0.50924975
112	0x3f038000	0.5136719
113	0x3ad149ea	0.0015967463
114	0x3d9f8400	0.07788849
115	0x3d1c7a2f	0.03820246
116	0xbea7201d	-0.32641688
117	0xbe16fd2a	-0.14745012
118	0xbe9b36ff	-0.30315396
119	0xbda36b9b	-0.079795085
120	0xbd7f4b77	-0.06232783
121	0xbe0cd2ce	-0.1375229
122	0xbe55644e	-0.20839044
123	0xbeada3bf	-0.3391399
124	0xbde89576	-0.113566324
125	0xbe9e8c16	-0.30966252
126	0x3e2c080f	0.16799949
127	0xbe1a2579	-0.15053357

net.10.bias f4 [8]
0	0x3ecaab22	0.3958369
1	0x3ea67a92	0.3251539
2	0x3e480165	0.19531782
3	0x3dbb20f4	0.09137145
4	0x3e441ca9	0.19151558
5	0x3eb85ee0	0.36009884
6	0x3eaf68b6	0.34259576
7	0x3ecb4dbe	0.3970775

net.12.weight f4 [1, 8]
0	0x3f3c2890	0.73499393
1	0x3f08acab	0.5338847
2	0xbf1bd3f5	-0.60870296
3	0xbf1d9002	-0.61547863
4	0x3f11100e	0.5666512
5	0x3f1c8e74	0.61154866
6	0xbf2d5108	-0.6770177
7	0x3f261446	0.64874685
